checkpoint_critic_v1_cpu.pth (torch, 91869 bytes, 9 tensors)

fcs1.weight f4 [128, 33]
00000000: e38c c7bd 6005 603d 8a24 d4bd c92e 003f
00000010: 7065 ce3d 90ce a83e dbfa 2bbe bde0 01bd
00000020: 9e52 e13b 3aaa 143d b09e 87bd 72c9 e73b
00000030: 670b 843d bb92 213d ba4e 56be 9abf 0d3d
00000040: 69b7 323d 522c 9d3e 1d80 c93e 36f1 a73d
00000050: 1a95 e73b 1513 7a3c 30b7 afbc df14 b8bc
00000060: 6546 d3bd 2621 27bd 69e9 343d b5c3 f73d
00000070: 6d0c f8bd 3a44 513d 3b22 cdbd 680b 13bc
00000080: b174 2a3e b682 a2bd ea54 4e3d 47b3 513e
00000090: 0faa 8cbe b70c 683d b526 80bd acb3 b63e
000000a0: cf38 623b 7a9f 8dbd 71d0 343e af42 63bc
000000b0: 1f9f 47bd 525b 49bd 45bf 26bd 7a3c 91bd
000000c0: d958 b9bd ced1 a73d 7bcc cebe be50 f33e
000000d0: 7744 e3be 8b08 2dbc 835b abbd 0b65 2fbc
000000e0: da57 73bb 8b12 af3c 645e dcbd fcd8 163c
000000f0: 4062 673d 2185 43bd e07b cbbb aaeb a4ba
00000100: 7e76 673d 5561 e93d 8132 fa3b 49fd 94bd
00000110: db2e 6abc 2214 afbe 7230 a23d d7b0 c8bd
00000120: 8d05 8cbd cb46 00bc d216 153d c533 a33d
00000130: f142 9abc 939d b9bc c40d 88bc b302 22bd
00000140: 104d 54bc d0e8 9e3b 8f17 70be c9da 923c
00000150: d141 b6be 2539 acbc a95b eabb 993e 8c3c
00000160: 523d 8d3c d38f cabc 5a66 edba d68e 48bc
00000170: b8c7 92bd 4248 8e3d 482f bf3c 2e45 4d3d
00000180: 27f4 3dbc 50e9 e3bb b1b2 803f 755a 4dbc
00000190: e1a4 073e 2471 80bd e2ff e03c b24f 193e
000001a0: 4310 15be 478c ab3d ac1d 06bd c6f0 e13d
000001b0: 2f0c aa3b 79d8 2a3c f08a 373d bc9b 97bb
000001c0: 0896 3a3e 53d4 ac3c af79 7d3c 024b 97be
000001d0: 96fc 023e 6b92 8c3d 1825 1c3e 1c96 f0bc
000001e0: 2003 b1bc ab4c e2bc 4b98 f0bc 9819 a0bc
000001f0: 1ac5 fa3c d044 5bbe e12a f33b b6a5 7e3c
00000200: c4c5 a6bc 25cd fdbd eead 723d 8751 253f
00000210: eebb 10be 61dc 923c 31bc b83d 6bf7 83bd
00000220: ffda 0a3f feb9 b1be 02e5 943e 214b 0bb9
00000230: 6d17 413c 76df fe3d c941 133d b44b c13c
00000240: 6baa 003c 7a10 20bd 6b4c 973d 3d08 82bd
00000250: 8c4e 6b3e e1ec ce3e 4abe f6be cfcf cc3e
00000260: 513e e23b 9d37 68bd 77ab 853a 76f2 f5ba
00000270: 9624 403d beff 80bd 0c32 c73c d2c8 90bd
00000280: 757b c23c 6886 e13c 1401 cb3c 4ac4 7a3d
00000290: 51d4 8e3e c964 333d 93e0 9d3b 6719 7abe
000002a0: 0610 623c f325 3fbd d8c6 44bd 3d84 d73d
000002b0: 9125 1ebd 0c7a da3d ef68 503a fd25 8d3c
000002c0: 4c8e 203c 4074 40bd 95d0 3c3d 8b16 1cbd
000002d0: 6cf4 36bd 741d babd 5eac 673d f77b 46be
000002e0: 23fa 4ebd 8cb3 363d 5bf9 b1bd 0afd b93b
000002f0: f29d ba3d e733 bdbb de50 6c3d bba5 283d
00000300: c5c0 453e 846c a73d 8482 853c ab6e 2bbe
00000310: a012 d7bc 51d3 553f 043a 73be 8641 19bd
00000320: 6b13 013d a935 1bbe c76d 113d 29ec 7f3d
00000330: de20 9ebd 6e2a 233d b5ac 5a3d 9a4c 56be
00000340: 6330 c7bc 2988 5e3d 1664 403d d968 d9ba
00000350: 0ca2 9c3d 54d7 de3d a5f0 4cbc f980 f5be
00000360: 00c2 eabd dd07 d63e 2458 8b3c 25e4 8f3c
00000370: 3dea 1d3d 825e 533d 472d 00bc 857b 5abc
00000380: 7a58 2a3e 4f5f 0e3e 0d3a ccbd 474c 8bbd
00000390: c77b 85bc 60af d13c 7e11 473e 7875 b4bc
000003a0: 7472 163d b207 86bc 9fe5 933d 4337 ad3e
000003b0: 2bd4 543f 6571 73be 3c0e 243d a08c a3bd
000003c0: 815b 9cbd c62a 413c e9ca cfbb 2f4c af3c
000003d0: 3401 693d 6926 9e3c 0de2 843d 3236 393d
000003e0: 3139 2e3f e6cc 21be 2064 fa3d b479 1cbc
000003f0: cd4c db3a ffdd 4fbb 0cb6 03bc ca87 cb3c
-0.09743669 0.054692626 -0.10358532 0.5007139 0.100779414 0.32970095 -0.16794913 -0.031708468
0.006876304 0.036295153 -0.06622064 0.0070735747 0.06447487 0.039446574 -0.2092847 0.034606554
0.043631945 0.30697876 0.39355555 0.08200304 0.007067335 0.015263339 -0.021449655 -0.02247089
-0.10316161 -0.040803097 0.04416791 0.12097875 -0.12111745 0.051090457 -0.100162946 -0.008974887
0.16646077 -0.079350874 0.05037395 0.20478545 -0.27473494 0.05665275 -0.06257383 0.35683954
0.0034518724 -0.06915183 0.17657639 -0.013870879 -0.048735734 -0.049159355 -0.040709753 -0.07091613
-0.090501495 0.08194314 -0.4039038 0.4752254 -0.44388172 -0.010561119 -0.08367064 -0.010705243
-0.003713122 0.021371147 -0.10760191 0.009207007 0.056490183 -0.047734383 -0.0062098354 -0.001258244
0.056509487 0.11395518 0.007635415 -0.07274873 -0.014293398 -0.34195048 0.079193965 -0.097993545
-0.06836996 -0.007829378 0.036398716 0.07968859 -0.018830748 -0.022658145 -0.016608126 -0.039553355
-0.012957826 0.0048495308 -0.23446487 0.01792659 -0.3559709 -0.021023342 -0.00715204 0.017119693
0.017241154 -0.024726784 -0.0018112168 -0.012241086 -0.071669996 0.06947376 0.023337975 0.050114803
-0.011593855 -0.0069553033 1.0054532 -0.012533774 0.1324649 -0.0627158 0.027465764 0.14971808
-0.14556985 0.08376365 -0.03274314 0.11032252 0.0051894407 0.010427588 0.044810236 -0.0046267193
0.18221295 0.021097338 0.015470906 -0.29549414 0.12791666 0.068638645 0.15248525 -0.029368453
-0.021607935 -0.027624449 -0.029369494 -0.019543454 0.030611563 -0.21412969 0.007420883 0.015542438
-0.020357974 -0.12392644 0.059247904 0.64577526 -0.1413419 0.01792735 0.0902027 -0.064436756
0.5424041 -0.34712213 0.2908097 -0.0001328406 0.01178537 0.124449655 0.03595141 0.023595668
0.007853131 -0.039078213 0.073876224 -0.063492276 0.22979182 0.404151 -0.48192054 0.40002295
0.0069044014 -0.056693662 0.0010198195 -0.0018764276 0.04690989 -0.06298779 0.024315856 -0.070695534
0.02374051 0.02752991 0.024780788 0.061222352 0.2789636 0.043797288 0.004818031 -0.24423753
0.013797766 -0.04666705 -0.048041195 0.10523269 -0.038610045 0.1066781 0.00079502066 0.017230028
0.009799551 -0.046985865 0.046097357 -0.038107436 -0.044666693 -0.09087649 0.056560867 -0.19383226
-0.050531518 0.044604823 -0.08690139 0.0056759166 0.09112157 -0.0057740095 0.05769431 0.041173678
0.19311817 0.081749946 0.016297586 -0.16741435 -0.026253998 0.8352557 -0.237526 -0.037416004
0.03151266 -0.15157188 0.035505082 0.06248108 -0.07721113 0.039835386 0.053387363 -0.20927659
-0.024315065 0.05432907 0.04697045 -0.0016587033 0.076480955 0.10880914 -0.012508546 -0.4794996
-0.11462784 0.41802874 0.017009802 0.017564842 0.038553465 0.0516038 -0.007823295 -0.013335113
0.16635314 0.13903545 -0.0997201 -0.06801658 -0.016294373 0.02559632 0.19440266 -0.02202867
0.036730245 -0.016361091 0.07221531 0.33831224 0.8313624 -0.23773725 0.040052637 -0.079858065
-0.076346405 0.011789983 -0.0063413274 0.021398632 0.056885913 0.019305425 0.06488428 0.0452177
0.6805602 -0.15800819 0.122261286 -0.009550501 0.0016731262 -0.0031718013 -0.008039009 0.024845023

fcs1.bias f4 [128]
00000000: 667c 0cbc 1d32 3d3e 0535 8abd f35b 5ebd
00000010: 9cea 6a3d de0e 27be 4070 e03d 81cf 62be
00000020: 6dd1 28be fb8a 253e 9728 78be 5517 dfbd
00000030: b3bd a03e a8bf a1bd 227d 28be b12c ec3c
00000040: eec8 54be 8712 183d 431f 02be ae35 bbbd
00000050: 73bf 7abe f548 acbd 426a f3bd 296e 6ebe
00000060: 74a8 01be f156 e039 4d9d bdbd 7731 88be
00000070: 7371 6abe 21ab e0bc 74d7 653e 6039 acbd
00000080: 0a7f 1ebd 6de5 713e d0a0 6bbe 80cc dd3d
00000090: b504 82bd 0d6a 063e cd81 37be 9640 32bd
000000a0: 7116 3abe bf1e 81bd 19bd 53be bab0 883e
000000b0: 65bb f4bc 71bd 0abb 3cd7 f3bd f1ed a4be
000000c0: af22 36bd 31a5 823c b7d6 703b 8dad 113e
000000d0: f019 a7bd 8205 03be a0b2 9f3d 3129 c2bd
000000e0: 036e 99bd 5c73 ddbd 787d 613c 6d00 86bd
000000f0: e959 253d 3be0 ef3d ae13 393e 3393 59be
00000100: 4439 52be 599a 9cbd cb61 98bc 7794 1e3e
00000110: 0101 5ebd 7168 57be 8a3f 90be 9d41 82be
00000120: 84fd 7d3d 3544 87bd 773e 0fbe 74b9 29be
00000130: 3aef 90bd 67b4 5ebe e11e 91bb 6aa9 45be
00000140: 3eca fbbd bd0e 09be e3cc 2e3d 51f9 8f3c
00000150: c46b b0bd c141 76be a36f 87bc c42f a53c
00000160: c390 80bd 8586 02bd d987 15be 376d d43d
00000170: 5e59 5dbe 1ce2 c7bb 8b63 813d 7523 1ebd
00000180: 9acc 94bd a894 adbd c5ea 64bd 7a87 19bd
00000190: 1124 c7be 3545 d0bc 0be7 2abe c829 46bd
000001a0: b1c1 a1bd 7049 36be 61f2 79bd 7b3d 39be
000001b0: d656 403d f5cb 74be dd76 c9bd 8255 31bc
000001c0: c62c 7dbd e805 a43d 7d9f 3cbe 8a38 82be
000001d0: 90f2 523d 1b36 9d3c 5d77 a53c 951a 7cbc
000001e0: 9fd2 5ebe 36ac 133d fd29 b63c fc30 3abd
000001f0: b487 8a3d e08c 9ebb 878c 3fbd a512 4d3d
-0.008574581 0.18476148 -0.06748394 -0.05428691 0.057352647 -0.16314265 0.1095891 -0.22149469
-0.1648614 0.16166298 -0.24234234 -0.10893122 0.3139473 -0.07897884 -0.16453984 0.028829904
-0.20779774 0.037127044 -0.12707238 -0.09141098 -0.24487095 -0.08412353 -0.118855014 -0.2328421
-0.12661916 0.00042789386 -0.09258518 -0.2660024 -0.2289484 -0.02742535 0.2244547 -0.08409381
-0.038695373 0.23622675 -0.23010564 0.10830021 -0.06348554 0.13126393 -0.17920609 -0.043518625
-0.18172623 -0.063046925 -0.20677604 0.26697332 -0.029874513 -0.0021170045 -0.11906287 -0.32212785
-0.04446667 0.01594791 0.0036749074 0.1422636 -0.08159244 -0.1279507 0.07797742 -0.09480513
-0.07491686 -0.10813019 0.013762824 -0.0654305 0.040368948 0.117126904 0.18073913 -0.21247558
-0.20529658 -0.07646627 -0.018601319 0.15486322 -0.054200176 -0.21035935 -0.28173476 -0.25440684
0.06200935 -0.06604806 -0.13988672 -0.16574651 -0.07076879 -0.21748506 -0.00442873 -0.19302908
-0.12294434 -0.13384528 0.042675864 0.017574938 -0.08614305 -0.2404852 -0.016532725 0.020164378
-0.06277611 -0.03186657 -0.14602603 0.103723936 -0.21616122 -0.0060999524 0.063178144 -0.038608033
-0.07265587 -0.084756196 -0.055887956 -0.037482716 -0.38894704 -0.025423625 -0.16689698 -0.04837969
-0.07898272 -0.17801452 -0.061022166 -0.18089859 0.046957813 -0.23905928 -0.098371245 -0.010823609
-0.061810277 0.08008939 -0.18420215 -0.2543376 0.051500857 0.019190839 0.020198518 -0.015387197
-0.21760033 0.036052905 0.022236818 -0.04545687 0.067641646 -0.004838571 -0.046764877 0.05006661

bn1.weight f4 [128]
00000000: c784 713f 6d98 353f 39d1 9a3f c872 783f
00000010: 3c47 373f 9cf7 4f3f 257e 503f b082 733f
00000020: 67c7 583f 4e8f 723f 9976 103f 6c57 a93f
00000030: 8d6b 493f 71bd 783f 0425 5e3f 61a5 6a3f
00000040: 3e09 803f 5bfd 5b3f ca42 813f 48be 773f
00000050: d09f 0d3f e75d 4e3f 3c28 873f a793 553f
00000060: 07bb 413f f6d2 3d3f 4dac 683f ec52 3d3f
00000070: f43f 5f3f 76bb 563f 751b 4c3f b5e4 553f
00000080: 1aed 833f f22b 5e3f ec7c 8e3f 2621 7f3f
00000090: 8bc5 473f b038 263f 59a1 483f 156a 633f
000000a0: 9a9a 873f 9431 343f 6139 9f3f f4ac 7c3f
000000b0: 2ead 743f 4e4a 513f 9304 743f 89c2 703f
000000c0: c830 6c3f 054d 603f 452e 4f3f f392 3f3f
000000d0: 7005 4f3f 4873 6d3f 511f 443f ed51 523f
000000e0: 06a9 6e3f 135d 603f e8bd 863f ae6e 5b3f
000000f0: d2a6 5b3f adf7 643f 648a 563f b480 6e3f
00000100: 90f0 433f eafd 813f c7fb 633f de30 673f
00000110: 762e 4c3f 9790 5e3f 3300 983f 3232 523f
00000120: 1a94 683f f09a 603f 6f8b 523f 70b0 653f
00000130: 58a7 703f c416 3e3f 3e66 5f3f d2ec 563f
00000140: c533 893f 189e 6f3f dd72 743f 5855 5d3f
00000150: 16b4 623f 755d 243f 2dac 733f 05f0 5f3f
00000160: 177a 633f be33 3c3f 1c6d 743f 2a9f 6c3f
00000170: 60d1 603f fe2c 663f 9246 463f f924 6d3f
00000180: 780f 623f 1895 763f 318a 7c3f 4aee 563f
00000190: ac99 4c3f 6928 413f bc37 583f f345 5f3f
000001a0: 3155 9f3f 342f 2c3f 1163 253f 89a5 b73f
000001b0: 526c 693f 5506 413f dd05 543f e754 603f
000001c0: 906e 593f d1f4 3e3f f8c2 6b3f a94b 563f
000001d0: 469e 833f 7303 833f ca0b 343f 8246 633f
000001e0: 5e65 5c3f 4b36 653f e850 7b3f 92b6 6a3f
000001f0: 0d2b 853f dcea 4e3f a057 a53f 7eba 313f
0.9434323 0.7093571 1.20951 0.9705014 0.7159307 0.81237197 0.8144248 0.9512129
0.84679264 0.94749916 0.56430966 1.3229804 0.78679734 0.97164065 0.8677523 0.916586
1.000282 0.85933465 1.0098507 0.9677472 0.5532198 0.80612034 1.0559154 0.83428425
0.75676006 0.74150026 0.9088791 0.73954654 0.8720696 0.8387979 0.79729396 0.83552104
1.0306733 0.86785805 1.1131873 0.99659956 0.780358 0.6493025 0.78371197 0.88833743
1.0594056 0.7038815 1.2439386 0.98701406 0.9557675 0.81754005 0.9531948 0.9404684
0.92261934 0.8761752 0.80929977 0.748336 0.8086767 0.9275403 0.76610285 0.8215626
0.9322666 0.8764202 1.0526705 0.8571576 0.8580142 0.89440423 0.8380492 0.93165135
0.76538944 1.0155613 0.89056057 0.9030894 0.79758394 0.86939377 1.1875061 0.8210784
0.90850985 0.87736416 0.8224401 0.8972235 0.94005346 0.7425349 0.87265384 0.8395511
1.0718924 0.93600607 0.9548777 0.8645835 0.8855604 0.64205104 0.95184594 0.87475616
0.8885817 0.7351645 0.9547899 0.92430365 0.8781948 0.899124 0.7745143 0.9263454
0.88304853 0.9632125 0.98648363 0.8395735 0.79921985 0.75452286 0.84460044 0.8721611
1.2447873 0.67259526 0.6460429 1.4347392 0.9118091 0.75400287 0.82821447 0.8762955
0.8493433 0.7459231 0.92094374 0.837092 1.0282676 1.0235428 0.7033049 0.8877946
0.86092174 0.8953597 0.9817033 0.9168483 1.0403763 0.80827117 1.2917366 0.6942519

bn1.bias f4 [128]
00000000: 7499 8cbe e276 f23e 25ce 9e3e 66d5 c03e
00000010: 8aaa 7a3e e4e8 703d d996 5aba f03c 10bd
00000020: b8ca ef3d 277f 5d3e 355a 833e 0e04 933e
00000030: ebe0 86be 9571 a23c 65fd f0be 35f0 973d
00000040: be62 5ebe 2d9f 5abd 56e7 5f3e 9b63 f93d
00000050: 8854 af3e b4a2 063f c026 3e3e c509 663d
00000060: 745b 583d 211f 313e d69a a2bd e322 a9bd
00000070: 9ee1 d73d c3d6 a8bc e644 13be 717f 39be
00000080: 59a0 863e 8a30 993e ca16 073e 806c e73b
00000090: 683a bd3e e15d d2be aff7 353e 0f97 86bc
000000a0: 3b1b 033e f51b 9dbe 7854 853e 513e 8d3e
000000b0: d35c 9fbe f5df 41bc 8654 9c3e 7c9c 9c3e
000000c0: 09c0 7abc 2fa4 043e d897 efbb 9aad 86be
000000d0: 9b55 ed3c e543 263e db75 debd 5431 05bd
000000e0: 49d6 a73b b455 18bd 7507 523d ff5e b5be
000000f0: c888 e63d 937a 5b3e d9c5 893d 1191 a93d
00000100: cef8 8c3c 7393 bf3d 184d b13c 23d6 c13e
00000110: a2f1 b9be d292 46bd 0716 133e 184b 833d
00000120: 430a c6be d7ee 82bc fc34 e83d abc2 d63e
00000130: 3a47 4fbd e0ef ac3e 8fc0 783e c9a5 103e
00000140: 7736 2e3e 840d 523e 2d50 6b3e 9498 8b3e
00000150: 68cd 23bd 6c73 d0bd bc92 89be c520 bd3d
00000160: f59e c63e 6c96 bc3d 47e2 d53e ea75 983d
00000170: 0b24 743d 81ce be3e 8ff2 ba3c 7a72 223e
00000180: c42a 96bd 798c 473e 4de2 833d 389b a5be
00000190: bb5c c53e c136 8dbe 0669 a33d ad03 b53e
000001a0: 0efb d13d 34c5 38be e9b5 7d3e b5cf 383d
000001b0: cba7 77be f424 a93d ad96 393d 2fee ce3e
000001c0: b100 ab3c ce82 49be d48e a3bc 4461 db3d
000001d0: cefe 73be 73df 75be ea86 11bf ecbf cd3d
000001e0: 9969 673c 775f d2be 0927 0e3f b3e3 7c3e
000001f0: cf4b 3d3e 6ea7 d73d 5dd3 4f3e ce4a 69bc
-0.27460825 0.47356325 0.3101665 0.3766281 0.24479118 0.05881585 -0.0008338518 -0.035214365
0.117085874 0.21630536 0.2565476 0.2871403 -0.26343474 0.01982955 -0.47068325 0.07418863
-0.21717355 -0.053374458 0.21865591 0.12177201 0.3424418 0.52592015 0.1856947 0.05616166
0.05282159 0.17297031 -0.07939689 -0.08258607 0.1054108 -0.020610219 -0.14381751 -0.18115021
0.2629421 0.29919845 0.13192287 0.0070624948 0.36958623 -0.4108725 0.17770265 -0.016429452
0.12803356 -0.30685392 0.26041007 0.27586606 -0.31125507 -0.011833181 0.30533236 0.30588138
-0.015304574 0.12953256 -0.0073118024 -0.26304322 0.028971484 0.16236837 -0.10862323 -0.032517746
0.0051219803 -0.037191108 0.051276643 -0.3542404 0.11256558 0.21433477 0.067271896 0.08279622
0.017208483 0.093542956 0.021643206 0.37858686 -0.36317164 -0.048479863 0.14363872 0.06410807
-0.38679704 -0.015983028 0.11338231 0.41945395 -0.050605036 0.3377676 0.24292205 0.14125742
0.17012964 0.20512968 0.22979803 0.27264845 -0.039990813 -0.10178265 -0.26869762 0.09234766
0.3879315 0.09208378 0.41774198 0.07444365 0.059604686 0.37266925 0.02282074 0.15863982
-0.07332376 0.1948718 0.06439648 -0.32344985 0.3854731 -0.27580836 0.07979016 0.35354367
0.10252963 -0.18043977 0.24776424 0.04511996 -0.24185102 0.082590014 0.04530971 0.40416095
0.020874353 -0.19678804 -0.019965567 0.10711911 -0.23827669 -0.2401102 -0.5684649 0.10046372
0.014124298 -0.4108846 0.5552831 0.24696235 0.1848595 0.105299816 0.20295472 -0.014239026

bn1.running_mean f4 [128]
00000000: 7698 413f 9358 b73e f7fa 843e c0eb dc3d
00000010: 795f 643d de26 4b3e a26c cd3d 5c08 5d3d
00000020: e04b 903e 9e89 0c3e 2769 cb3c ef62 263e
00000030: 34da c83e fbaa 893d 60d0 593e d8be 163e
00000040: 42d7 443e 25d8 853e 9708 873e 1b31 683e
00000050: 12d6 dd3c 9282 9e3e f63d 073e 44a8 803e
00000060: c8bf 063f ae46 b53e e93f 423e c4b9 d93d
00000070: b811 143e 9b9d be3e da91 f83e de18 e03d
00000080: be2a 683e 18ae ad3e a5fa 8a3e ca16 8d3e
00000090: df9a 0e3e 6130 4a3e aa6f 5c3e cd8e 8b3d
000000a0: ab1a 5f3e cb55 c03d 0d5f 3c3e 5163 343f
000000b0: b161 f83d 68ce af3e e180 393e 845b 113e
000000c0: db3f 543e 7ea5 d83d ee79 993e 0c03 253e
000000d0: 3665 103f e62a f63e 3655 8d3e a305 0f3e
000000e0: 6234 f23e 1874 013e 943e 3a3e fe17 ba3e
000000f0: baa9 113f 79a7 f13d 0a85 203e 2a03 f03d
00000100: beb2 c53c 706b 8b3e 25df a53e 8216 ba3e
00000110: 3f4d fd3d d498 823e e24f 143d 8ac0 9a3d
00000120: b684 b53e 875d 263d 0d94 103e 78ab 773e
00000130: 465f 2c3f 24d3 193d 13c8 c43e 592b 883d
00000140: 3aa6 c73e b6b0 863e 4268 9b3e 85a3 1c3e
00000150: 5e59 3e3e f7fe a23d 7c15 e23d a1b8 703e
00000160: f378 a53e ad9b 0c3e dd44 0d3f 3a62 183f
00000170: be23 0e3e 8fe1 063f c0a9 833d 44b7 0a3e
00000180: f73b 543e 2499 d83e e1ca 993d 0590 853e
00000190: 37bb d63d 84ed 473e cfb5 b73e a9f9 0c3e
000001a0: 828a e83d f9ed b73d bb0b b33e 4572 153e
000001b0: cf51 d83e 83e4 893e 3b8b 193d 9c2e e83e
000001c0: dc51 573d 8ed9 7d3e 8eb5 a63d 8b3f c33d
000001d0: a22e cb3d 056b dd3d af09 cd3e a5c9 863e
000001e0: b6bd 153e c5b4 d53e aa6d e53e 9ba3 573e
000001f0: b997 953e 05d1 963e 3a2e 673e f3fa c23c
0.7562326 0.35809764 0.2597272 0.10787153 0.055755112 0.19839045 0.10030486 0.05396305
0.28182888 0.13724372 0.024830414 0.16248678 0.39228976 0.06722065 0.21270895 0.14721239
0.1922274 0.26141468 0.2637374 0.22674982 0.027079616 0.30958992 0.1320723 0.25128376
0.52636385 0.35405487 0.18969692 0.10631135 0.14459884 0.37229618 0.48548776 0.10942243
0.22672555 0.33921885 0.27144352 0.2755645 0.13926266 0.19745018 0.21526971 0.068143465
0.21787517 0.09391364 0.18395634 0.70464045 0.12128008 0.34337163 0.1811557 0.14195067
0.20727484 0.1057844 0.29975837 0.16114444 0.56404436 0.48079604 0.27604073 0.13966994
0.4730559 0.12641943 0.18187934 0.3634643 0.5689961 0.11799521 0.1567575 0.117193535
0.024133082 0.27230406 0.32396808 0.36345297 0.12368249 0.25507224 0.036208995 0.07556255
0.35452813 0.04061654 0.14118977 0.24186504 0.67332876 0.037554875 0.38433895 0.06648893
0.38994008 0.26306695 0.3035298 0.15296753 0.18588778 0.07958787 0.11039254 0.2350793
0.3231884 0.1373126 0.551832 0.5952488 0.13880822 0.52687925 0.064288616 0.13546473
0.20726 0.42304337 0.07509399 0.2608644 0.10484927 0.19524199 0.35880896 0.13767113
0.11354543 0.089809366 0.34969887 0.14594372 0.42249915 0.26932153 0.037486296 0.4534806
0.0525683 0.24790022 0.081400976 0.09533604 0.09921004 0.10811428 0.4004645 0.26325718
0.1462315 0.4173948 0.4481023 0.21058504 0.29217318 0.29456344 0.22576228 0.023801303

bn1.running_var f4 [128]
00000000: d5ef 0b3f 405e 353e 8e0c 263e ed39 bd3d
00000010: 722c 1d3d 7b6c e23d d0aa 853d 30ca fd3c
00000020: 368f 153e 1427 803d 2d83 833c d46f b53d
00000030: c66d 403e dcae 443d 984d 0d3e ce4d 7d3d
00000040: 858a fe3d d3ca 143e b072 203e dde0 0a3e
00000050: 0f9d cb3c e5a1 4d3e 9ac8 853d 426e 493e
00000060: ef27 4b3e bc17 863e 2816 0a3e 1a6c 8e3d
00000070: c874 893d b4a4 953e 0dea a23e c70d 873d
00000080: 4758 003e 7460 223e 9166 053e 1ac2 1f3e
00000090: 39b6 8a3d b2ed d73d a965 c53d 7ded 153d
000000a0: 4199 023e aef4 9f3d 20b4 003e fd2d bb3e
000000b0: f3db 663d 00fc 9e3e bb57 863d 2108 903d
000000c0: 051b f63d 33b5 c23d d25c 553e 86a2 a43d
000000d0: 83f6 053f 457e bd3e fa6f 2f3e df12 963d
000000e0: 7afd aa3e 626d 9b3d 732b e33d 1bf3 a73e
000000f0: b19f ba3e af9d b23d af45 9b3d 0518 a63d
00000100: 7e50 393c 5964 103e b31d 1c3e de81 073e
00000110: be92 3a3d 5bdf 1d3e dd2e 2f3c ecbe 253d
00000120: 256a ad3e 4513 9f3c 8841 e93d 3c46 163e
00000130: e457 043f cefe f53c 7109 543e 6d7e 093d
00000140: 331b 953e c961 683e f021 363e 3962 953d
00000150: 3a98 ea3d 8d64 6c3d 2778 873d 0b81 f73d
00000160: c8cb 5c3e 2f86 033e 4e3f af3e 5c28 2b3e
00000170: 6ce7 aa3d 9ffa 033f 028f 163d 6436 883d
00000180: 5cc5 d13d d866 693e 6251 fe3c b97c 3c3e
00000190: e3c6 6f3d a861 0a3e bca2 4a3e 1823 723d
000001a0: 8421 653d b44c 5d3d c7c5 8f3e 840f a53d
000001b0: 7ba4 9a3e 8ac4 1d3e a480 c93c a89b f23e
000001c0: 0abd df3c 8012 203e d371 6f3d 63fb 533d
000001d0: 3162 4e3d 95f2 5f3d 928e 6a3e ceef b93d
000001e0: a293 7d3d 04bf 993e 94ab 5a3e 4b41 d43d
000001f0: 11a2 4e3e fe51 3a3e c704 0d3e 35a1 823c
0.5466283 0.17711735 0.16215727 0.09239564 0.038372464 0.11055847 0.065267205 0.0309802
0.14605412 0.062574536 0.01605376 0.0885922 0.18791875 0.04801832 0.13799131 0.06184178
0.12428764 0.14530496 0.1566875 0.13562341 0.024855165 0.20081289 0.06532402 0.19670966
0.19839452 0.26189983 0.13485014 0.069542125 0.067117274 0.2922722 0.31819192 0.06594425
0.12533675 0.15857106 0.13027407 0.15601388 0.067730375 0.10543384 0.09638531 0.03660344
0.12753774 0.07810341 0.12568712 0.36558524 0.056362104 0.31051636 0.06559702 0.070328005
0.12016872 0.09507217 0.2083619 0.080388114 0.5232927 0.37010399 0.1713256 0.07327818
0.33396512 0.075892225 0.11092272 0.32802662 0.3644996 0.08721482 0.075816505 0.0811005
0.011310695 0.1410078 0.15245704 0.13233134 0.0455501 0.15417235 0.010692325 0.04046528
0.33870044 0.019418368 0.11389452 0.1467523 0.5169661 0.030028727 0.20706727 0.033567835
0.29122314 0.22693552 0.17786384 0.07294125 0.11454816 0.05771308 0.06614714 0.1208516
0.21562111 0.12844156 0.34227985 0.16714615 0.083449215 0.5155429 0.036757477 0.06650999
0.102427214 0.22793138 0.031044666 0.18406953 0.058539283 0.13513815 0.1978864 0.0591155
0.055940166 0.054028228 0.2808058 0.080596 0.30203614 0.15407005 0.024597473 0.4738438
0.02731182 0.15632057 0.05845816 0.051753413 0.05038661 0.054674704 0.22905949 0.09078942
0.06190837 0.30028546 0.21354514 0.10364016 0.20179011 0.1819534 0.13771354 0.01594601

fc2.weight f4 [128, 132]
00000000: fe5e db3b 4a18 5bbc bef8 55bd 24fa 9d3c
00000010: e476 06bd 38ce 05bd 033a 183e 344f 543d
00000020: 5464 ee3c 2f02 29be 1925 e3bd 2c63 08be
00000030: e1fc bf3d 6937 353d a13f 833d 4aa9 f4bc
00000040: 9bda d0bd c08c 4fbd 2cf1 58bd 7d42 cfbd
00000050: 960b a2bd 8aad f9bd 26d9 06bf 19c7 05be
00000060: e206 99bd 57ad 6bbc 3252 d2bd 5ecd 07be
00000070: e173 3d3e 6b2a 89bd 9ad7 c2bc 7004 4b3e
00000080: 5136 39bd 3f9e 083d 93f1 433d 0f36 a1bd
00000090: 9944 ff3c 39b7 26bd 8e33 003d e26b 483e
000000a0: 8b56 823d 182f 113d 198a 84bc 9248 b3bd
000000b0: 852d ddbc ccab 8bbd 8e1c 443d 1a8e 51be
000000c0: c495 3ebd 5286 c03d a46b b53c 4ac4 17be
000000d0: 1991 903d d107 35bd 7bea d8bc 6ed1 9f3c
000000e0: 017a 40be 60ab 8cbe 11c1 dfbc d401 3a3e
000000f0: 904c d3b9 9f61 4fbe 9f5d 02bc 3a85 163d
00000100: 4d32 d23d 86c9 6ebd 2d6e 4ebe 0dd6 5abc
00000110: 7681 e0bd 0595 8e3b 8474 b7bc 9585 2e3e
00000120: 6a3b 9f3d 5b1e 823d 84af 4d3c 05fd b4bc
00000130: 1b8f 353d bd31 c5bd ea6f 95bb f372 fdbd
00000140: b67a d5bd cedf 3abe b0a4 3bbd 6d00 68bd
00000150: 6708 853c 0788 c53c 1f3c 673d 3de4 0e3d
00000160: ee69 33bc 80fb a4bc 69d8 59be 7713 b8bd
00000170: dfd7 d53d 2c4a 33be e78a f43d 7840 2ebd
00000180: fa2a 8b3d df01 5c3d b019 b9bd 2f30 463e
00000190: c63a c63d 4a17 46be 4950 cd3b eabf 41be
000001a0: 0ffa f3bc 9850 d4bd 13e9 0e3d ae0e f5bd
000001b0: 5898 d03d 337e 87bd ed07 b1bd ed7a 94be
000001c0: dce6 a3bd 099d 73bd e5f4 293d 4654 90bd
000001d0: b424 193d 5817 783d 205b 8dbd 7c76 54bd
000001e0: 694e 133b ca4c 0e3e acd0 eabb 175d 073e
000001f0: 0aad 0dbd d225 043e 6e1e 063e c445 af3d
00000200: b2de 5f3d c224 f3bd 97fa 12bd 372f 4d3d
00000210: 1ddb f9bd b786 e6bb 0e33 8e3d d9d3 d23d
00000220: 3bec 9ebd 518f bbbd 204c 1fbe 947d a63d
00000230: 8753 4dbd f42a ee3d 3fbf 763b 8c73 1bbe
00000240: e82c a1bd 41a4 07be d965 413d de79 70bd
00000250: aaff 92bd 6867 343d 163d 8b3a 48b2 e33c
00000260: 5f4e d83c a027 d13d 2cd9 323c c333 143c
00000270: ae99 6d3d 2749 e2bd c8f7 08bc 136f 95bc
00000280: ba26 2a3d 3d97 793d 149c 3fbd 4f58 21bd
00000290: 6db6 73bc 6ac8 54be 843b 65be 41ce 32be
000002a0: 1bd7 29bd ee2b 87bc 14b9 1ebd 7239 73bd
000002b0: 649a 03be d5f1 2dbc 46e3 00be b782 5ebe
000002c0: 3429 143d 9d62 383c 3824 293e 6c9d 59be
000002d0: e178 233d f00a bebd 2514 05bd 39b5 acbd
000002e0: 9c8f 15be d80f 0f3d fda8 bf3d 1f13 1abe
000002f0: a4d1 603e 6704 c1bd a0d4 b0be af95 123d
00000300: 00a5 c33d 0100 07bd 2191 24be aa2e e83d
00000310: 2e9a fb3d b923 82be 74d2 233e 3fa9 e3bd
00000320: 3c82 cb3d 0f2d 00bd d366 d93d 338d c63d
00000330: 5eb8 dd3c d423 8abe aeb4 72bd ab12 513d
00000340: 5637 563d b5af acbd b5c9 263d a7b1 70bd
00000350: 3b94 9b3c 4a5c a13a 08d3 053e 7c29 09bd
00000360: 3a94 95bb 1d61 ab3d 1b07 f0bd 0be6 04be
00000370: 632a 3cbe d827 c53d cea3 99bd e2e3 9d3c
00000380: f961 32bd 33f8 fe3c 1819 f5bd 5ac2 18bd
00000390: 9763 e33d 5ae4 163d 66d2 ea3d 053f c53c
000003a0: bc4a c43c 0cb6 823c cb02 703b e759 863d
000003b0: d9e5 8dbd 5a15 863d 6622 6cbd 4f54 8d3d
000003c0: 8cc4 c6bc 3e18 98bd 05bc 6bbe 455f 75be
000003d0: 64ba 6abe 3007 ec3d 6922 fdbd 2bb2 53bd
000003e0: 18f9 4d37 02c7 8c3d 303f b33d bb60 ebbd
000003f0: a315 a6bd 4ede 533e 8429 15bd cebc 873c
0.0066946736 -0.01337249 -0.052239172 0.019284315 -0.032828227 -0.03266737 0.1486588 0.051833346
0.029100575 -0.16504739 -0.1109106 -0.13319081 0.09374405 0.044242296 0.064086206 -0.02986588
-0.10197946 -0.05067134 -0.052964374 -0.101201035 -0.07912366 -0.12191303 -0.5267509 -0.13064231
-0.07472016 -0.014384589 -0.10269584 -0.13261935 0.18501236 -0.06697544 -0.023784447 0.19825912
-0.045217816 0.03335404 0.047837805 -0.07871639 0.03116064 -0.04070208 0.031299166 0.19572404
0.06364163 0.035445303 -0.016179131 -0.08754076 -0.026999244 -0.06819877 0.047878794 -0.20464364
-0.046529546 0.094006196 0.022146054 -0.14820972 0.07058925 -0.044196907 -0.026478997 0.019509044
-0.18796541 -0.274745 -0.02731374 0.1816476 -0.000403021 -0.20252083 -0.007956891 0.03674815
0.102635 -0.058297656 -0.20159216 -0.013356698 -0.10962193 0.0043512606 -0.022394426 0.17043145
0.07775004 0.06353446 0.012554053 -0.022093305 0.04432593 -0.096286274 -0.0045604603 -0.123754404
-0.10423796 -0.18249437 -0.045811355 -0.05664103 0.016239358 0.024112714 0.05645382 0.034885634
-0.010950549 -0.020139456 -0.2127396 -0.089880876 0.10441565 -0.17508763 0.11940556 -0.04254195
0.067953065 0.053712722 -0.090381026 0.19354318 0.09679179 -0.19344822 0.0062656743 -0.18920866
-0.029782323 -0.103669345 0.034890246 -0.119656906 0.10185307 -0.066158675 -0.0864409 -0.29000035
-0.08003017 -0.059475932 0.041493315 -0.07047324 0.03738852 0.060569137 -0.06902146 -0.051870808
0.0022477156 0.1389648 -0.007165989 0.13219105 -0.03458885 0.12905052 0.13097546 0.085582286
0.05465574 -0.11872245 -0.035883512 0.050093856 -0.12199996 -0.007035102 0.06943332 0.10294313
-0.07759901 -0.09158195 -0.15556383 0.08129421 -0.050128486 0.116292864 0.0037650613 -0.15180796
-0.07869893 -0.13246252 0.04721627 -0.05870997 -0.0717767 0.04404393 0.0010623063 0.027794972
0.026404558 0.10212636 0.010916036 0.009045544 0.05800789 -0.11049109 -0.008359857 -0.01824144
0.04154084 0.060935248 -0.046779707 -0.03939086 -0.014875037 -0.20779577 -0.22385985 -0.17461492
-0.041464906 -0.01650044 -0.038750723 -0.059380956 -0.12851864 -0.010616739 -0.12586698 -0.21729551
0.036172107 0.01125398 0.16517723 -0.21251458 0.0399102 -0.0927943 -0.032489914 -0.08433003
-0.14605564 0.03492722 0.09358404 -0.15046357 0.21954972 -0.09424668 -0.3453722 0.03578728
0.095529556 -0.032958988 -0.16070987 0.113370255 0.12285267 -0.2541788 0.1599825 -0.111162655
0.099369496 -0.03129297 0.10615315 0.096949 0.027065452 -0.2698046 -0.05925434 0.051043194
0.052298866 -0.08431951 0.040719707 -0.058763172 0.01899158 0.001231083 0.13068783 -0.03348683
-0.004564789 0.08368132 -0.11720105 -0.1297838 -0.18375544 0.0962674 -0.075019464 0.019273702
-0.043550465 0.03112421 -0.11967677 -0.037294723 0.1110298 0.036838867 0.114659116 0.024077902
0.023961417 0.015955947 0.0036622758 0.06560116 -0.069286056 0.06547041 -0.057649992 0.06900846
-0.024263643 -0.07426499 -0.23020943 -0.23962124 -0.22922665 0.115248084 -0.12360079 -0.051683586
1.2276949e-05 0.06873895 0.087522864 -0.11493059 -0.081095956 0.20690271 -0.036416546 0.016569521

fc2.bias f4 [128]
00000000: 2aa8 753d bc75 75be 6e7b d93c 5f61 b8be
00000010: a1dd b0be 821d 533e d700 b3be efb4 273e
00000020: 0a79 d4be 058e 8dbe 3e08 2a3e 9355 a63e
00000030: 0980 993e db1b 54be 916d f8bd 61ac b7be
00000040: 6e38 57be 0d99 d5be 1958 ecbe ee97 9abe
00000050: 4f8a babe 4dc3 b6be 803e 5cbe d936 a4be
00000060: 4097 9abe 7464 783d 98fc e7be 3bde 99be
00000070: 18d3 bfbe f662 04be 4053 6abe 3ff0 173b
00000080: c832 1037 a589 f03e 1ccc 8e3e fc9c 89be
00000090: f206 0dbc 1db7 233d f6e1 9c3e a203 c0be
000000a0: 6d88 86be 7d98 afbe f772 6dbe 3c0e cdbc
000000b0: b299 8e3e 72e3 c53e d69e a9be 1377 c0be
000000c0: 6879 94be d7ec 95be f661 b8be 764e a8be
000000d0: 8012 673d 0b28 b8be 1033 e6be df29 353e
000000e0: 8bb6 07bd 7df2 73be d9b8 2f3e 475b bf3c
000000f0: bf17 a7be 995f 8bbe 72b0 7d3d 5a15 8bbc
00000100: 9d98 c6be 11ea 86be 6158 c7be d216 e2bc
00000110: d871 3e3e 9b16 3a3e cf28 a43c 1ee5 953e
00000120: 4104 a63d 944d cbbe 380f b5be e132 e2be
00000130: 40fe 163e c904 96be 6cb1 ea3d 2eb7 a8be
00000140: 5c71 513e 17e1 cfbe 1864 983e 646d 2b3e
00000150: 920b cc3c 6532 893e 7cad ce3d b391 4cbe
00000160: 184f acbe e8ce af3e f796 083e 79b0 353d
00000170: 7cf2 a0be 7cf2 a0be b076 87be 7f63 8cbe
00000180: 8b9f dbbe d211 bebe 8b3c 573e 7f09 f0be
00000190: d1ce 64bd 45f8 b43e b7a9 a6be 02d7 fcbd
000001a0: 8512 8bbe 1814 bbbe 7424 6c3e 8beb 273e
000001b0: 4aa1 b7be 69a1 c8be 5a2d 473e e5ef 003f
000001c0: 2f1c 4dbe ec02 b6be ec70 b6be e24c 77bd
000001d0: 4d3f 8ebe fcd3 a33e 451f b13e e9a4 823d
000001e0: 0f45 dabe 8aeb af3e 0b00 b53e 1ac6 ca3c
000001f0: 2866 6b3e 853e bfbe c680 8abd ca77 0d3e
0.059974827 -0.23970693 0.026548114 -0.36011788 -0.3454409 0.20616725 -0.34961578 0.16377614
-0.41498595 -0.27647415 0.16604707 0.32487163 0.29980496 -0.20713751 -0.12130273 -0.35873702
-0.2101762 -0.4171833 -0.46160963 -0.30194038 -0.36433646 -0.35695878 -0.21508217 -0.32073095
-0.3019352 0.060642675 -0.453099 -0.3005236 -0.3746574 -0.12928376 -0.2288332 0.002318397
8.594892e-06 0.46980014 0.27890098 -0.26877582 -0.008607613 0.039969552 0.30641145 -0.37502772
-0.2627596 -0.34296027 -0.23188387 -0.025031202 0.27851635 0.3865009 -0.33128995 -0.37590846
-0.28998876 -0.29282257 -0.36012238 -0.3287236 0.056414127 -0.3596805 -0.44960833 0.17691754
-0.03313307 -0.2382297 0.17160358 0.023358954 -0.32635304 -0.27221373 0.06193585 -0.016977955
-0.3878831 -0.26350453 -0.38934615 -0.027598772 0.18598115 0.18172686 0.02003899 0.29276365
0.0810628 -0.39707625 -0.35363173 -0.44179443 0.14745426 -0.29300526 0.11459622 -0.32952255
0.204534 -0.40601417 0.29763865 0.16740948 0.02490786 0.2679626 0.10091683 -0.19977455
-0.33654094 0.34337544 0.13338839 0.04435775 -0.31435 -0.31435 -0.2645774 -0.2741966
-0.4289516 -0.3712297 0.21019189 -0.46882245 -0.055861298 0.35345665 -0.32551357 -0.12345697
-0.27162567 -0.36538768 0.23060781 0.16398446 -0.3586524 -0.39185646 0.19450894 0.5036605
-0.20030282 -0.35549104 -0.35633028 -0.060376056 -0.2778267 0.3199767 0.3459417 0.0637911
-0.42630813 0.3435939 0.35351595 0.024752665 0.22988188 -0.37352386 -0.06762843 0.13815227

fc3.weight f4 [1, 128]
00000000: 3b84 9d3d 81aa 1abe 9787 b53d 8c66 f8bd
00000010: 7b35 cabd afa6 ae3d 6ac3 debd a98a ae3d
00000020: eae6 62be 5b75 39be 7c8c e63d 7cec 9b3d
00000030: be65 b63d 91aa 0c3e 2a76 0d3e 0acb 03be
00000040: 8720 98bd 9e3f b8bd 4547 36be bb3b ccbd
00000050: 6f1e 1dbe 2a10 84bd 8d06 8b3e 1d02 dbbd
00000060: 3f0a f0bd 077d b03d cd0d 39be b3bf b0bd
00000070: 86a0 bbbd b5d0 c23d ca92 f93d e43e d13d
00000080: 3100 c23d 3cca b43d e7f3 b73d 5f1b e1bd
00000090: c982 b93d ac82 9a3d d2aa a13d 9b9b eabd
000000a0: 048d 2abe 68a2 4ebd 90ff e3bd 44a9 a03d
000000b0: ebad 963d e513 aa3d fdcb a8bd 1774 98bd
000000c0: 1492 26be ec31 0fbe 55c5 8bbd 9425 d5bd
000000d0: 9bc2 8a3d 2b22 8bbe 1f59 adbe c636 853d
000000e0: c016 b53d 5fa4 abbd b36f a63d 57d4 aa3d
000000f0: e4a6 8abd 8512 57bd 016b 923d b6aa 523d
00000100: 5182 7fbe 70c7 09be 1b4a 6dbd 9132 c63d
00000110: ab51 9f3d 5585 433d 68c8 9e3d 688a a53d
00000120: 3c56 8f3d 8c65 d0bd 7566 c6be 6e58 78be
00000130: 1279 ab3d c981 c8bd 84c3 893d c897 acbd
00000140: 195c a43d 5ba3 a8be 4fcc a23d dafc 973d
00000150: 56c2 b03d 272a 7c3d 5254 9d3d b9bd 7dbd
00000160: 6f67 93bd 79aa 8e3d 974e 833d 449e ad3d
00000170: be71 8bbd a093 ddbd 43e8 a6bd 6c22 703e
00000180: f981 ddbd e872 bcbd 4f4b ac3d 9004 40be
00000190: bacf db3d c0ef be3d fcdd 90bd e876 be3d
000001a0: 8b7a 98bd 836b adbd ba65 983d 4613 a03d
000001b0: 24f9 cabd 6cea 01be fc42 b23d 67db b73d
000001c0: c180 dfbd b92c aebd adf2 0fbe 53bc d63d
000001d0: f452 a0bd df78 b43d 73fd de3d 57ef cc3d
000001e0: 04bb 1dbe 58f1 943d 678f 9b3d 5bd1 a43d
000001f0: e45c 7e3d 938f a3bd 9334 703d da95 a13d
0.076912366 -0.15104105 0.08863752 -0.12128934 -0.09873482 0.08527886 -0.10877116 0.08522541
-0.22158399 -0.18111174 0.11257264 0.07613465 0.089061245 0.13736941 0.13814607 -0.12870422
-0.07428079 -0.08996509 -0.17800625 -0.0997233 -0.1534364 -0.064483956 0.27153435 -0.106937625
-0.11720704 0.08617597 -0.18071671 -0.08630314 -0.09161477 0.09512464 0.12186201 0.102170736
0.09472693 0.08827636 0.089820676 -0.10991549 0.090581484 0.07544455 0.078939095 -0.11455461
-0.16655356 -0.05044785 -0.11132729 0.07844785 0.07357391 0.08304576 -0.08242033 -0.074440174
-0.16266662 -0.13983887 -0.068247475 -0.10407558 0.06775399 -0.27174506 -0.33857056 0.06504588
0.0884223 -0.08380961 0.08126774 0.08341282 -0.06770113 -0.052507896 0.071493156 0.051432334
-0.24952056 -0.13454986 -0.057932 0.096776135 0.07779249 0.047734577 0.07753068 0.080830395
0.0699887 -0.101756185 -0.38750044 -0.24252483 0.08372702 -0.097903796 0.06726745 -0.084273875
0.08025379 -0.3293713 0.07949125 0.074212745 0.08630817 0.061563637 0.076820984 -0.06194851
-0.07197463 0.06966109 0.06411474 0.084774524 -0.06808804 -0.10819173 -0.08149769 0.23450631
-0.10815806 -0.09201604 0.084128015 -0.1875174 0.1073298 0.093230724 -0.0707359 0.09300023
-0.07445248 -0.08467772 0.07441278 0.07816176 -0.09910801 -0.12687081 0.087041825 0.089773946
-0.1091323 -0.08504624 -0.14057417 0.10485139 -0.07828322 0.08812117 0.10888185 0.10006588
-0.15403372 0.07272595 0.07595711 0.08047744 0.062100306 -0.07986369 0.05864389 0.0788991
