checkpoint_actor_v1_cpu.pth (torch, 91357 bytes, 10 tensors)

fc1.weight f4 [128, 33]
00000000: 0b32 1bbd 0ae0 2c3d b8bc 043e 49b5 003d
00000010: f310 febd 2f48 70be 943f 893e 6216 aabd
00000020: a061 afbb 7671 35bd 0b0c 7fbb 3f62 1a3d
00000030: 8258 cf3c fb03 19bd eed1 f83b 876f 0fbd
00000040: 5ee4 5e3d 650e a93c 15a2 043e 79f9 8abd
00000050: 58e6 a83c b929 0cbd 4472 c33b efe0 3c3d
00000060: 58eb 983b 97b4 f63a 9be4 b63d 513b dabc
00000070: 3dcd 9ebd a473 eb3c 739f f7bc 5286 e1bc
00000080: ecf5 93bf e61c 3f3e d649 183d 2657 f53d
00000090: cc6a 0cbe e7f5 0e3f 03c1 68bd 143f dc3e
000000a0: 17e2 8a3a d99b 303e c6eb 0f3d 86e9 7c3c
000000b0: 34a0 303c 9dee b8bc 6e58 63bd 3e0d c5bb
000000c0: 569f a5bd a068 5dbe 4342 a9bd b799 563e
000000d0: b38c 0f3d f4ed 1ebd f59a 2cbd d6ed 993b
000000e0: 079f 33bc e7e6 8cbc fcf0 1bbd 5248 b6bd
000000f0: 83f8 143d bea0 3b3c ded2 a4bd a2f1 f8bd
00000100: 8c80 a83c 4629 613f 56e7 82bd 5f1b 183d
00000110: 7a8f 6fbc 2ff3 a5bd 8010 18bd 8197 dfbd
00000120: bd9d 3d3e 4777 853d a1f6 453e 6474 77bd
00000130: e045 5ebc ceb3 c73c c4e4 82bc ad58 99bb
00000140: 1b3c c6bd 285e 55bb 73ee c1bd 3ae4 d43d
00000150: 5265 f23d 0da9 61bd 6b57 94bd 11ce c7bb
00000160: c7be 743c 3539 123d b978 ecbc 8b87 133c
00000170: 76bf 09bc 0e7d 0f3e c6b4 08be 12ae 563d
00000180: 2a5e fabd 92d3 e1bc ea03 8d3f 8d87 af3d
00000190: 79c5 03be 31ff 49bd 7fea 203e 790c e33e
000001a0: ac67 fabe 60a0 063e e0ce 323d d9d1 813d
000001b0: 81a8 113d eb38 153d 1afc 01bd fcfb 24bc
000001c0: 28a5 24ba 8a0a 153e 36d4 983b 0de8 ee3e
000001d0: 5948 35bd 8194 473e 5ca7 6b3e 220e b73c
000001e0: c60c 103a ce2a f83c c830 323d 9b0a 393d
000001f0: 238c 52bd f1f9 9ebd 97a1 923d 17f7 3ebd
00000200: a209 6c3d b985 27bd 286c aabc 56c1 0c3f
00000210: 34a9 a3bd 546d 62bd 0bb8 713e 04a0 33bd
00000220: c8d3 de3e f08e 993e 4a5a 6fbe 4a15 ad3d
00000230: 0cd8 143d eafc a1bd b7fb 27bd 4e4f 8d3c
00000240: 7992 623c 1476 84bd 22b7 1a3e 4776 e7bd
00000250: e760 f73c b5f6 de3d 7f8f c5bd 867c d83e
00000260: 0ee2 fb3b bfdb 22bd 7660 113d abf5 eabb
00000270: e130 3b3c 168a 25bc a746 48bd 49d0 3c3b
00000280: a09e d43d 9884 8dbc 0890 8abd fe93 4f3d
00000290: ec38 063f 505d 8fbd 9e2f 283d 6989 33bb
000002a0: d1eb eb3d a7b7 213e 70d8 debe 130e b4be
000002b0: 0794 d03c d289 fdbb e1a1 17be 878e d5bc
000002c0: 375b c23c 22f0 34bd a14c ff3d be79 c73d
000002d0: 61fa 9dbc ccb5 ecbe 8472 e13d ae2e 523c
000002e0: 8834 49be 52cc 213d 46fe 0cbd b79f a7bb
000002f0: f2c7 82bd fbc3 9c3d b831 fdbd 3bcb 2bbe
00000300: 6c08 cabd 8b26 22bd 17f9 3bbd 9ada 803d
00000310: 56ca 163d bc43 d13d 7590 963d 9d3a 843d
00000320: a310 e63d 6c26 9fbe d206 95be 4f86 283e
00000330: 4371 e53a c433 2dbd 886a 3bbe 5314 91be
00000340: 6265 c7bb eb06 923c 74ec 703d 5bf9 103d
00000350: 6f02 e93c 964b 853d 2139 df3d eb8a 8a3b
00000360: 0611 773d b5f0 9c3e ddf0 553d d87e 003d
00000370: 6991 b13c a931 18bd 41ee 85bc 795a c13c
00000380: 8fa7 24be 89f1 da3d 3fe1 28be bcbd 09bd
00000390: f846 05be 1437 a8bd 5574 10bf 1650 27be
000003a0: 8af7 923e eec2 76bd f464 c2bd af7a 15be
000003b0: 3c4a 373e ab45 4abb eb14 c33c ec7f 8e3c
000003c0: 9854 03be 36df cabc 3e3e 59bc 6363 a73c
000003d0: ecdc 0a3e 616f 06be ac3d 8c3d 7a62 553e
000003e0: 42c6 963b 2bd4 3dbe 7d98 c93e f841 dcbd
000003f0: 249a f6bc fbde 7a3c 128d 0bbe adf2 4ebd
-0.03788952 0.042205848 0.12962615 0.031422887 -0.124055766 -0.23465036 0.2680632 -0.083050504
-0.005352214 -0.044297658 -0.003891709 0.03769135 0.025310759 -0.03735731 0.007593385 -0.03501847
0.054417007 0.020636747 0.12952454 -0.067858644 0.020617649 -0.034219477 0.0059645493 0.04611295
0.004666727 0.001882213 0.08930322 -0.026639612 -0.0775399 0.028741665 -0.030227398 -0.02752987
-1.1559424 0.18663368 0.03717979 0.11979513 -0.13712615 0.5584397 -0.056824695 0.43016875
0.0010595944 0.17246951 0.03513696 0.015436536 0.010780383 -0.022574717 -0.055504255 -0.0060135415
-0.080870315 -0.21621943 -0.082645915 0.20957075 0.03504629 -0.03880115 -0.042139966 0.0046975417
-0.010963208 -0.017199947 -0.038071617 -0.08900513 0.03636981 0.011451898 -0.08048032 -0.12155463
0.020569108 0.87953603 -0.0639178 0.037135478 -0.01462161 -0.08103024 -0.03712511 -0.10917569
0.18517204 0.06516891 0.19332363 -0.060413733 -0.013566464 0.02437773 -0.015978225 -0.0046797604
-0.09679433 -0.0032557342 -0.09469309 0.10395093 0.118357316 -0.05509286 -0.07243236 -0.006097563
0.014938063 0.035699088 -0.028866159 0.009004484 -0.008407464 0.14012548 -0.1335021 0.0524121
-0.122249916 -0.027566705 1.101682 0.08570776 -0.12868299 -0.049315635 0.15714453 0.44345453
-0.4890722 0.13147116 0.043654323 0.063388534 0.03556109 0.036431234 -0.031734563 -0.010069843
-0.0006280714 0.14554802 0.0046639694 0.46661416 -0.04425845 0.19490243 0.23013061 0.022345606
0.00054950675 0.030293848 0.043503553 0.04517613 -0.051403176 -0.07762516 0.07159727 -0.046622362
0.057626374 -0.040899012 -0.020803526 0.5498251 -0.07991257 -0.055280045 0.23605363 -0.043853775
0.4352095 0.29991865 -0.23374286 0.08451326 0.03633885 -0.07909568 -0.04101154 0.01724973
0.013828867 -0.06467834 0.15108922 -0.113018565 0.030197574 0.108868994 -0.0964651 0.42282504
0.00768686 -0.039760347 0.035492383 -0.007170399 0.011425228 -0.010103723 -0.048895504 0.002881067
0.10381818 -0.01727514 -0.06765753 0.050678246 0.52430606 -0.0700022 0.041061036 -0.0027395135
0.11519588 0.15792714 -0.43524504 -0.35166988 0.02546121 -0.0077373767 -0.14807846 -0.026068939
0.023725135 -0.04417432 0.12465788 0.09740017 -0.019284429 -0.4623245 0.1100817 0.012828512
-0.19648945 0.039501496 -0.03442218 -0.005115475 -0.06385793 0.07654568 -0.12362999 -0.16776745
-0.098648876 -0.03958754 -0.045891847 0.06291695 0.036814056 0.102179974 0.07351772 0.06456492
0.11233642 -0.31084 -0.29106766 0.16457485 0.0017505068 -0.042285696 -0.18302357 -0.2833582
-0.006085084 0.017825564 0.05881925 0.035394054 0.028443543 0.065085575 0.10899568 0.004227986
0.06031897 0.30652395 0.05223166 0.031370968 0.021675782 -0.037156735 -0.01634896 0.023602711
-0.16079544 0.106906004 -0.16492175 -0.03362821 -0.13015354 -0.0821363 -0.5642751 -0.16339144
0.28704482 -0.060244493 -0.094919115 -0.14597581 0.17899412 -0.003086428 0.023813685 0.017394982
-0.12825239 -0.024764638 -0.013259469 0.020433133 0.13560838 -0.13128425 0.068477005 0.20838347
0.004601271 -0.18537967 0.39374152 -0.1075477 -0.030102797 0.015311952 -0.13628033 -0.050524402

fc1.bias f4 [128]
00000000: 2beb 0a3e fdb3 ba3d d43e 26be 7be5 65bd
00000010: 3819 f4bd 1404 c33d 1cc3 36bb ccb2 e0bd
00000020: f43b 96be fc28 f1bd 8b72 b8be 278f ca3d
00000030: 94b9 6a3e 4604 283d e69e 9c3d 1995 29be
00000040: 9ede 4bbe 7be8 5dbe 2e5d 9fbe ca37 c1bd
00000050: 3da5 82be c2a7 b9ba 58df dfbc 9061 8bbe
00000060: 0985 fb3d c26d a6bc 27ad acbd b60f 50bd
00000070: fc38 9abe ccf4 3dbd ad4f 9b3d b739 6abe
00000080: 63ef 863d e5fb 8bbd 0542 97be 430b abbd
00000090: d23e b4be 5007 913d 5b43 9abe 1cf7 3cbe
000000a0: 04fa cf3b e37a 313e 1de5 adbd 9334 82bb
000000b0: 9665 4dbe 28db 143e 8c67 083e 34c2 18be
000000c0: fc94 7abb e082 0abe 9fdb 2b3e f619 3e3d
000000d0: ff8c 223e 4bb5 d0be 10c9 663e 50fb 7ebd
000000e0: 0144 1ebb 3993 7cbe d079 a4bd a099 4abe
000000f0: 81aa 5fbe 27e1 91bc f372 ecbd 9adf a13d
00000100: 6bb8 fcbd e660 ed3d d20f 2eb9 0ad9 96be
00000110: 21a4 06bd c95f 003c f535 90be 5aa7 ea3c
00000120: 1ba1 093e ca8b 34be 82cd 593d 59e9 d43e
00000130: a10c e03d c8e0 1b3e 0aa6 73be 30e9 aabe
00000140: f4d4 dcbd 8b77 0b3e a20f 76bd c775 4d3d
00000150: 1a26 213e 8378 93bd 74e3 c73d 33aa 5fbe
00000160: cd4f 1d3d b06e 99be f20f e7bd 8208 e8bc
00000170: e5fb b4be b68b 4abe 2568 623e f985 68bd
00000180: 42c2 c0bd 8431 efbd fed3 b33d 9118 9cbd
00000190: 3838 5bbe 443a 6bbe 4300 4cbe ca63 c6bd
000001a0: 4588 4b3e 4826 ccbd e233 42be d6ef 5cbe
000001b0: 5ba8 bdbd cef6 31be cbf5 3dbe d1d2 db3c
000001c0: f81b aebd 4e04 68bd f5c0 a4be bf28 adbd
000001d0: d667 413e 20af 413b bebf 5abc b229 f6bd
000001e0: 76ca 003e 54f7 9d3d 20c6 adbd 826b afbc
000001f0: 0ad4 953e fa9b 0f3e 9b91 963c 6730 09bd
0.13566272 0.09116361 -0.16234905 -0.056127053 -0.119188726 0.09522262 -0.002788729 -0.10971603
-0.29342616 -0.11775395 -0.3602489 0.098905854 0.22922355 0.0410197 0.07647495 -0.16560782
-0.1990914 -0.21670716 -0.31125778 -0.09434469 -0.25516692 -0.0014164376 -0.027328178 -0.27222872
0.12281234 -0.020316008 -0.08431464 -0.050796233 -0.301216 -0.046376035 0.07583556 -0.22873579
0.06588628 -0.068351544 -0.29542556 -0.083517574 -0.35204178 0.07081473 -0.30129513 -0.1845364
0.006346943 0.17332034 -0.084909655 -0.0039735525 -0.20058283 0.14536726 0.1332075 -0.14917833
-0.0038235774 -0.13526487 0.16782998 0.046411477 0.15874098 -0.40763316 0.22537637 -0.06225139
-0.002414942 -0.24665536 -0.080310464 -0.19785166 -0.21842386 -0.017807556 -0.11545362 0.07903977
-0.123398624 0.115907475 -0.00016599827 -0.29462463 -0.03287137 0.007835337 -0.28166166 0.028644253
0.13440363 -0.1763145 0.053174503 0.4158428 0.10939909 0.15222466 -0.23793808 -0.33381033
-0.10782805 0.13619821 -0.060073502 0.05016115 0.15737191 -0.0720072 0.0976018 -0.2184227
0.038406182 -0.2996726 -0.11282338 -0.02832437 -0.3534843 -0.19779858 0.2211004 -0.05676839
-0.09412052 -0.11679366 0.08780669 -0.07621873 -0.21408165 -0.22971445 -0.19921975 -0.09687002
0.19876201 -0.09968239 -0.18965104 -0.21575865 -0.09260627 -0.17379305 -0.18550794 0.026833924
-0.08501428 -0.05664473 -0.32178465 -0.08455037 0.18887267 0.0029553846 -0.013351379 -0.120196715
0.12577233 0.0771319 -0.08485055 -0.021413568 0.29263335 0.14024344 0.018379977 -0.033493426

bn1.weight f4 [128]
00000000: f040 c03f 0865 ba3f 41ec ba3f 96a2 aa3f
00000010: 62d4 b53f b8d2 b63f 72f2 ab3f 8e15 9c3f
00000020: 15f7 ac3f ac55 a13f 8dca a03f 87e3 933f
00000030: c59f a73f 0793 ba3f 90f8 ae3f 4dd5 a63f
00000040: d3ec b73f fc4f bc3f 9b3f a83f 4abf a43f
00000050: d73d ab3f bf7a ce3f 89d2 c93f 87ec a03f
00000060: 05cf a23f df2f b93f 6974 a63f 7945 973f
00000070: f9f3 bb3f 7a13 903f 34c8 933f 7846 d03f
00000080: ff4b c53f 9c80 bb3f 5645 9e3f 26a6 b43f
00000090: b0dd c73f 7f27 a53f 69fa a73f 01f4 ba3f
000000a0: e629 b73f e15d bf3f 4245 b93f 51cc b43f
000000b0: 96f3 c03f 4185 ae3f 0d70 963f bc49 993f
000000c0: bd13 a03f 1f62 af3f bccd 9e3f 4463 b93f
000000d0: 8151 dd3f 5964 ae3f 18e3 b63f d184 b83f
000000e0: d40e df3f daf3 a93f eb53 a53f 665d a03f
000000f0: 8c75 b53f 596f a73f 4bfc b33f 3903 a23f
00000100: c2e4 b73f 540a a83f a83a c23f d0b3 af3f
00000110: bc27 be3f 255f aa3f 2da6 a53f 953f b03f
00000120: 676f 9e3f 1d09 bf3f 5001 b03f c7e6 a53f
00000130: 07bd 9e3f d0dc b53f 67d7 f83f b254 d03f
00000140: dd51 c63f 1b73 d63f 8e78 923f 3e1c d63f
00000150: 8a0f c03f f1a9 b43f fa82 bb3f 42e4 ad3f
00000160: ba68 b63f 5dfe a43f 00a3 a63f e191 9f3f
00000170: 8b98 a33f f825 9b3f 6447 ae3f b4fd b63f
00000180: 8d11 a53f 0dd4 933f c67a e33f 4bac ab3f
00000190: 6953 aa3f 02a6 ac3f 5c43 b93f 599d d63f
000001a0: ddd2 a83f 61d8 a63f 3521 b13f f2dd c83f
000001b0: 0da0 a53f f992 a53f 081b a13f 65ad a53f
000001c0: b134 c43f 8a68 b33f fb2a 913f 1892 af3f
000001d0: b5c1 b03f 9be5 9c3f f60d b23f ff7a aa3f
000001e0: 92a4 b03f 8548 a93f c2c1 c83f 7ee8 a83f
000001f0: aac3 a73f 30b4 a73f 106e ae3f 4e01 a13f
1.5019817 1.4562082 1.4603349 1.3330867 1.4205439 1.4283056 1.3433363 1.2194078
1.3512903 1.260427 1.2561814 1.1553811 1.3095633 1.4576119 1.3669605 1.3033844
1.4369148 1.4711909 1.3144411 1.2870877 1.3378247 1.6131209 1.5767375 1.2572182
1.2719427 1.4467734 1.3004276 1.1818076 1.468383 1.1255944 1.1545472 1.6271505
1.5413817 1.4648623 1.236491 1.4113204 1.5614529 1.2902678 1.3123294 1.4605714
1.4309661 1.4950525 1.4474261 1.4124852 1.5074337 1.3634416 1.1752945 1.1975627
1.2506024 1.3701819 1.2406535 1.4483418 1.7290498 1.3624374 1.4288054 1.4415532
1.74264 1.3277543 1.2916235 1.2528503 1.4176497 1.3080856 1.4061369 1.2657233
1.4366686 1.3128152 1.517415 1.372675 1.4855876 1.3310286 1.2941338 1.3769404
1.2377747 1.4924656 1.37504 1.2961053 1.2401437 1.4208012 1.9440736 1.6275847
1.5493733 1.6753877 1.144304 1.6727369 1.5004742 1.4114362 1.4649346 1.3585284
1.425071 1.2890126 1.3018494 1.2466394 1.2780927 1.2120962 1.3615537 1.4296174
1.2895981 1.1549088 1.7771842 1.3411955 1.3306705 1.3488162 1.4473681 1.6766769
1.318935 1.3034784 1.3838259 1.5692732 1.2939469 1.2935477 1.2586374 1.2943541
1.532858 1.4016278 1.1341242 1.3716459 1.3809115 1.225757 1.391051 1.3318785
1.3800223 1.3225256 1.568413 1.3195951 1.3106587 1.3101864 1.3627338 1.2578523

bn1.bias f4 [128]
00000000: c954 a3be 2f6f 893e 9f92 2c3d 5cf9 0d3d
00000010: e0e5 21bd 4e33 a1bd 502d 44be e746 94be
00000020: ded4 acbe b446 aa3b ff75 be3d b4cc 5d3e
00000030: 130b 523e 5d91 ab3e 63d6 1dbe bf66 fcbc
00000040: a4b8 12be c43e 36be 5730 9b3e 1ff1 8c3d
00000050: 45ef c6bb 8635 0a3d 4f65 d43d a835 fa3d
00000060: 6147 be3d d985 ecbb 25e6 30bd 233e 413d
00000070: 796b 873e 8776 07bd 7998 1bbe 4a3d ac3e
00000080: 6d5e cf3c 5c0c df3e 857a a9bd 3be4 9fbd
00000090: 8fd6 07be db0c 90bd 7407 6a3d 24e7 0c3e
000000a0: 3cfe 423e 9245 0bbd aad3 573c 0d67 11bf
000000b0: 33f1 703d 2bd2 e03c 0c01 433d 86b6 e03c
000000c0: 23de 163e 5a98 b2ba 6a50 243d 9b0c 5e3e
000000d0: 9aa6 afbd 4c6d a0bd 070c 253e 6723 933d
000000e0: d8b5 90be 00a5 193e 233a bcbc e883 8b3e
000000f0: 8539 9f3d 36c9 14be ace0 81be fbbd 6e3e
00000100: e5cd 663e 9ac8 9ebe 6cb1 923d 9e3d ccbd
00000110: 465d 003e a2b6 853e 7533 cebe 42ea 2a3e
00000120: 02c0 babd c86f 763e 506a 89be a3d3 b83d
00000130: ba9f 2f3e 9fc7 fe3c df8e ca3c a921 833e
00000140: 470b 923d 2b5d 2c3e df8a 60bc c104 aabe
00000150: 609f 8b3d 2011 b93d ae0f 85bc c19a d4bd
00000160: 5375 3ebe 06ff 403e 9e07 acbd 987f 693d
00000170: 1d1c 29be d43d 26bc 07bd 503e e689 3fbd
00000180: d754 3b3d a68b 203e 36ac 06be 0f95 b03d
00000190: 22d2 8cbe e313 d33d b1c2 8c3e 9756 89bd
000001a0: b387 2f3e 6747 3bbd 184e 03be 3af6 04be
000001b0: 570a a03e 4495 543e 45df eb3d 60eb 5cbd
000001c0: a566 f03d c6b0 883e 2210 a8be 0e76 b8bd
000001d0: d7fc f63e a923 203e be53 48be f52b 073e
000001e0: c5c2 033d 303d 2c3c f1e5 883e 7258 30be
000001f0: 154d 513e 59d7 ac3e 3e59 883d 6c9a 1f3d
-0.31900623 0.2684264 0.042132016 0.034661636 -0.039525867 -0.07871114 -0.1915791 -0.28960344
-0.33756155 0.0051964168 0.0929985 0.2166012 0.20512037 0.3350934 -0.15413813 -0.030810712
-0.14328247 -0.1779738 0.30310318 0.06881928 -0.0060710036 0.03374245 0.103708856 0.12217265
0.09290958 -0.0072181043 -0.043188233 0.0471784 0.26449183 -0.03307202 -0.15194882 0.3364051
0.02531358 0.43564117 -0.08275322 -0.078072034 -0.13265441 -0.07033702 0.057136014 0.13760048
0.19042295 -0.034001894 0.013173023 -0.5679787 0.058823776 0.027443966 0.04760842 0.027430784
0.14733176 -0.0013625727 0.04011575 0.21684496 -0.085766986 -0.07833347 0.1611787 0.07184487
-0.28263736 0.15004349 -0.02297694 0.27249074 0.07774643 -0.14529881 -0.25366724 0.2331466
0.2253948 -0.31012422 0.07162747 -0.0997269 0.12535581 0.261159 -0.40273634 0.16690925
-0.09118654 0.24066079 -0.26838923 0.090247415 0.17150775 0.031101046 0.02472633 0.25611618
0.07131057 0.16832416 -0.013704984 -0.33206752 0.06817508 0.090364695 -0.016242828 -0.103810795
-0.18599443 0.18847284 -0.0839989 0.05700645 -0.1651463 -0.010146577 0.20384608 -0.04676237
0.045735206 0.15678272 -0.13151631 0.08622181 -0.2750407 0.103065275 0.27492288 -0.06705969
0.17141609 -0.04572239 -0.12822759 -0.12984553 0.3125789 0.20760065 0.11517195 -0.05393541
0.11738328 0.26697367 -0.32824808 -0.09006892 0.48239776 0.15638603 -0.19563195 0.13200362
0.03216817 0.010512635 0.2673793 -0.17221239 0.2043956 0.33758047 0.066576466 0.038965628

bn1.running_mean f4 [128]
00000000: 47ed a03e b94e 373e e562 853e 7b50 5c3e
00000010: b346 8e3d f872 dc3e bed7 833d b979 063e
00000020: d489 413e 5b28 853e 3767 c63e 5458 203f
00000030: 9a60 c43d 132c a33f c2eb ac3d 31fa 033e
00000040: f87c 813d 863f 073e 00d2 fa3d 93ec 183f
00000050: 6483 a23e 4f90 a73e 1aa8 cf3e 791b 423e
00000060: 3067 213f a9ac 0c3f 9e07 3c3f 6580 8d3e
00000070: 570f d93d 87e6 543e 069b 583e 83d8 553e
00000080: 039b bb3e 2ca3 b13e 9946 913d 6eae 293e
00000090: 00aa 243d 8738 543f 67b1 fc3c 531b 2f3e
000000a0: 5806 1c3e 27c3 933e 263c d53e e26d ac3e
000000b0: 5df4 5a3d a580 9d3f f5c2 773f 6a5b 2c3f
000000c0: cee2 163f bbaf 7d3d 2786 823e fcbf 6e3e
000000d0: d1fe d83e 70ff ed3d f84c 0f3f ed6b 743e
000000e0: edb8 893e 156e 893e ee95 143f 6460 8e3e
000000f0: ce46 a33e 2211 3c3e 211b e93e dd9a 7e3f
00000100: cc7c 0b3e ca41 ca3e 40aa 933d 4ba7 4e3e
00000110: 5deb d33e 36f4 473f 4a18 8a3d e93b 253f
00000120: b399 bd3e cd92 5d3e 6911 7f3e faad dd3f
00000130: 0e26 d73e febd 623f b1ad b23d bea6 013e
00000140: e34b 933e 6879 b13e 1116 453c 927e 183e
00000150: c53f 5f3e 4537 293f 0773 aa3e 4d4d f53d
00000160: d353 b13e c453 e03e 0b67 033e 93a5 ab3d
00000170: 0cf9 013e b1c3 673e be89 d33e 5fc6 143e
00000180: 68ef b03e a1fa bb3e 4c8c 863e b492 553f
00000190: 528e fc3e 5d1e 063e ab29 2d3e edf6 1a3e
000001a0: f11e 233f f14c b63e 15a1 143e 895e 273e
000001b0: 3dfe 243f 71fb ce3d 4c30 d93d 9037 143f
000001c0: ac88 243d 72ee 5e3e af34 a13d 5b7b ee3d
000001d0: 2b42 643f 5539 b23e 3b99 3a3e 7d0f 0f3d
000001e0: 6b4e 7e3f 9694 973e 0c9b 903e 5151 543d
000001f0: 2e7c bf3f 52cb 2e3f 3446 b53e 6433 183f
0.31431028 0.17901124 0.26052013 0.21515076 0.069470786 0.43056464 0.06437634 0.13132371
0.18900234 0.2600735 0.38750622 0.6263478 0.09588738 1.2747825 0.08443405 0.12888409
0.06322664 0.13207826 0.122470856 0.59735984 0.31740868 0.32727286 0.4055794 0.18955792
0.63048077 0.5495096 0.7344912 0.2763702 0.10598629 0.20791064 0.21152887 0.20883374
0.36641702 0.34694803 0.070935436 0.16570446 0.040201187 0.82898754 0.03084631 0.17100267
0.15236795 0.28859827 0.41647452 0.33677584 0.0534557 1.2304884 0.96781856 0.67326987
0.58939826 0.061935168 0.25492975 0.23315424 0.4238191 0.116209865 0.5597682 0.23869295
0.268989 0.26841798 0.58041275 0.27807915 0.31889957 0.1836591 0.4552851 0.9945505
0.13621825 0.39503318 0.07210207 0.20181005 0.41390505 0.7810701 0.06742914 0.6454454
0.37031326 0.21638031 0.24908985 1.7318718 0.4202122 0.88571155 0.08724535 0.12661263
0.28768834 0.34662938 0.012029187 0.14892033 0.2180167 0.6609996 0.33290884 0.119776346
0.34634265 0.43813908 0.12832277 0.0838119 0.1269266 0.22633244 0.41316026 0.14528798
0.34557652 0.36714652 0.26278913 0.83426976 0.49327332 0.1309752 0.16910426 0.15133257
0.6371909 0.35605577 0.14514573 0.16344656 0.64450437 0.101065524 0.10604915 0.5789728
0.040169403 0.21770647 0.07871377 0.11644622 0.89163464 0.34809366 0.18222515 0.03492688
0.99338406 0.2960555 0.2824329 0.051835362 1.4959772 0.6827899 0.35405123 0.59453416

bn1.running_var f4 [128]
00000000: 075a 623e f60d c93d 82c0 2c3e 9150 be3d
00000010: 4e04 463d 88bd 8b3e fd53 1a3d bf7c ff3d
00000020: a6e9 b63d 9213 713e 3a77 d13e 6bd7 c43e
00000030: 9f94 9b3d be26 9f3f 7107 453d e611 8f3d
00000040: 7101 233d ee42 953d 7d85 bd3d 876e f73e
00000050: e98f 9e3e 5041 3a3e 7c41 8c3e f881 8f3d
00000060: 6001 1f3f 9a62 a93e 9fff e63e 2edb 873e
00000070: e079 ae3d 7220 5b3e e94c 013e c661 da3d
00000080: 3f6f 513e 8153 763e 1550 3a3d 81e9 b63d
00000090: 9f42 9d3c 5550 d03e fe71 cd3c f861 c43d
000000a0: 2583 c83d 03a3 1c3e e68d 863e 31f4 913e
000000b0: 863e bb3c 6406 403f 4afb a13f b439 4f3f
000000c0: 3931 b63e 9baf 773d ec7c 683e 0cd3 1a3e
000000d0: 529a 383e 52fa e53d 9d9b 713e 49f1 e13d
000000e0: 5fe3 2e3e 3420 2a3e a5a8 203f ea4d 1d3e
000000f0: c9f6 9c3e 926c 1d3e 5633 dc3e b27d 043f
00000100: eea2 8a3d 67bd 2e3e 57e6 153d 89f9 113e
00000110: d588 7d3e 1410 a63e 104d 283d 17f7 c03e
00000120: 36d5 ae3e f5d7 0d3e 99b6 253e e23c 8e3e
00000130: 440b cd3e ffe4 e23e 0891 613d 1e5c 923d
00000140: ad9e 593e 0745 713e 3dd8 713c c314 db3d
00000150: 5e47 f63d 2d4e d13e 3c00 193e 5453 973d
00000160: 3a66 753e 3f9d 093f 721e 653d 6a92 933d
00000170: 6e60 cf3d c618 263e 6d98 013e cf24 6b3d
00000180: 457c 773e 807d 873e b4d2 333e 9c99 6a3f
00000190: b5b2 d13e c4d3 903d 6c06 cc3d bdde 9d3d
000001a0: 0aee f33e 3130 903e 325a c13d 29c2 af3d
000001b0: 0ce0 153f adce b33d e43b 463d 4e6a 523e
000001c0: 577f aa3c 8349 f03d 6624 463d 2e1c 743d
000001d0: e280 4c3f 8873 a53e 3551 f93d 7ff5 ea3c
000001e0: 0560 513f f678 543e 6221 323e 2eca 153d
000001f0: b09f 9c3e 90e4 f43e 7e0d 8a3e f8f6 e63e
0.22104655 0.09817116 0.16870311 0.092927106 0.04834395 0.27293038 0.037677754 0.12474965
0.08931284 0.23542622 0.40911275 0.384456 0.075967066 1.2433698 0.0481028 0.06985836
0.039796297 0.072881564 0.092539765 0.48326513 0.3096917 0.18188977 0.2739371 0.070072114
0.62111473 0.3308304 0.45116898 0.26534408 0.085193396 0.21399096 0.12626995 0.1066318
0.20452593 0.24055292 0.04548653 0.08931256 0.019196806 0.40686288 0.02507877 0.095889986
0.09790639 0.15296559 0.26280135 0.28506616 0.022856962 0.7500975 1.2654812 0.80947423
0.3558443 0.060470205 0.22703904 0.1511957 0.18027619 0.112293854 0.23594518 0.110323496
0.17078923 0.16613847 0.6275733 0.15361753 0.30657032 0.15373448 0.43007916 0.51754296
0.067693576 0.17064439 0.036596622 0.14255346 0.24759229 0.32434142 0.041089118 0.37688515
0.34147042 0.13851912 0.16182937 0.27780825 0.40047657 0.44315335 0.055069953 0.07146476
0.21251936 0.23561488 0.014761028 0.10697319 0.12025331 0.40879956 0.14941496 0.073889405
0.23964778 0.53755563 0.055937238 0.07205661 0.101258144 0.16220388 0.12655802 0.05740815
0.24168499 0.26462936 0.17560846 0.9164064 0.40956655 0.07071641 0.099621624 0.077084996
0.47642547 0.28161767 0.094410315 0.08581955 0.58544993 0.08779655 0.04839696 0.20548365
0.020812673 0.11732771 0.048374556 0.059597187 0.7988416 0.32314706 0.12173692 0.028681515
0.8178714 0.20749268 0.17395547 0.036569767 0.30590582 0.4783063 0.2696342 0.45110297

fc2.weight f4 [128, 128]
00000000: 92f5 2b3e 1885 83bd 847d 933c 30a5 d43d
00000010: a976 60be a3ef 19be 556d 743e 169a 3e3d
00000020: 99ef 843e d4cc 0b3e d1f8 743d b0ba 6abe
00000030: df94 2ebe 10b3 553d 3682 713e b7ea 36bd
00000040: 55d4 8e3e 1e35 c53d 531f 963c 648f fa3d
00000050: 4528 aebc ff92 663d a930 adb9 c6f4 33be
00000060: 673e 83bd cb56 713d 1d3e 1b3d c56e 49bd
00000070: 38cb 71be 5730 c23d 4fce 99bc 6026 b23d
00000080: 4e13 01be aff0 a23d a7e2 df3d 705d 98bd
00000090: 1289 0c3d b7ea 1ebe 6fb2 a0be 5217 cd3d
000000a0: 371e 39be 553a 61bc 9bfa a93b dc2d 943e
000000b0: 056e 53be 7bdd 0ebe 8b3e 343d 3416 ad3d
000000c0: 9215 353d a86d 1e3e e3f8 d83d abac 013d
000000d0: dc8f 6fbd fd2f 57bd 33ef 66be 0fd3 513e
000000e0: e531 9dbe b272 d1bc 4e96 c83c 83bb 933e
000000f0: 3c26 77be 7fe9 353e cebf f73d 16a9 67bd
00000100: d2b8 64be d3ce 48be 2f9b b73d 79c5 8b3d
00000110: 6e40 d73d fad5 19be 94c1 193d be2c 4fbe
00000120: 9f33 0e3e 836a 233e 9041 49bd c029 073e
00000130: 4414 02be 0d0f 11bd d4e8 ec3d 9093 763e
00000140: 4200 58bc 0632 41be 9963 f13c 686b ae3d
00000150: 2db8 38be 4033 6dbe 33e1 80be e026 6bbe
00000160: e81c 473d e3dc ef3d 08a6 98be 15fa 45be
00000170: 0818 ccbc e3b5 5f3e b8d6 c0be 010f 9d3d
00000180: 3c2e c03c a3db 7a3e eb9a 14be 6c31 cfbe
00000190: a2a5 e73d 3333 46be 2118 7f3e e3d9 053e
000001a0: e67f 91be 1f86 8cbd 87a8 acbd a522 d4be
000001b0: a032 c03d 8132 62bd a013 19be 8dd8 dabd
000001c0: c5f5 39be 4e3d 653d 4a55 28bd 0442 11be
000001d0: f334 febd 7e15 cabe 3154 44be 594b b33e
000001e0: 9d6c 0a3d 4691 b63d 0495 083d 68b0 bdbd
000001f0: 4580 a3bd eea0 5c3d 2476 9c3d 7d49 88bd
00000200: ab8a 003e fd1d 5b3e f39c 333c 851e 81be
00000210: 3013 823d f492 8b3e a611 35be 68d8 82bc
00000220: 71e2 4dbc 7b60 45bd b75f 693c fe15 a53d
00000230: ef33 3f3d 0636 0e3e 008a 1b3d 9ab7 0f3e
00000240: 3789 02be 9475 b3bd dc80 ebbd 73ed dfbd
00000250: 8c82 e1bd 3028 e43d 4b93 863e bdf0 e33d
00000260: 0b53 3bbe f497 25be 7518 093b 4707 2ebe
00000270: 7a58 d53c fd74 3a3e 314d 0f3e 4a46 dcbd
00000280: 2d8d c4be 6e88 30be ee23 84be b877 e53d
00000290: 2d57 873c 0268 b43d 81e1 91bd 03a4 a2bc
000002a0: 667e a93d 9ef5 a7bd 3da4 40be e62e 63bd
000002b0: 57fd 4bbd 257a af3d eef3 023e c694 90be
000002c0: 25ff 003e b930 49be 1c35 3e3e a336 92bd
000002d0: 6f5e 123e 3af7 473e 8735 a1be a5fe 7f3e
000002e0: 036a 7f3e e6ae 81be 1fb1 74be dad7 85bd
000002f0: 0d45 363d 52be 4bbe 6bc1 11bc c7f6 29be
00000300: e37d c6be f773 0e3e 5e65 0b3e 5439 20be
00000310: 502b 87be 0a9a 133e b1d7 f1bd dea0 95bc
00000320: c305 3a3e 9fc9 573e 8b0f 4b3e 27c4 00bd
00000330: a9fc 2abe 9da7 be3c 0027 48be 0385 babd
00000340: c2a8 8d3e 7542 1cbe 940c 603e 2e90 593e
00000350: 8cff 25be bc4d 8cbd 81bf 183e 2095 26be
00000360: 2bb3 333e 4471 a3bc 8de1 293e eaf3 d33d
00000370: 2ee5 86be 04d7 c63d 8188 c0be 3908 2cbe
00000380: 86f1 aebd c0dd 02be 520d 4bbd ca35 29be
00000390: eebb bdbe b26a 123d b2e0 c63d 02c6 bb3d
000003a0: b5d1 4cbe f60f 36be e77e a53d 9281 07bd
000003b0: 8e55 1dbe 35f9 bc3d 7b84 353d 0d1a 43be
000003c0: 8598 a2be dff5 6bbe 923e b4bc 2530 133d
000003d0: b8b0 50be f391 a33c 0b79 bfbb 42d0 c2be
000003e0: 566e a4bc ed7a 5d3e 0fb7 bcbe 454b a83e
000003f0: c7ea aebd bfb6 f83d 1c4c cfbc 62fd 2bbe
0.16792896 -0.0642187 0.018004186 0.103830695 -0.21920265 -0.1503282 0.23869832 0.046533667
0.25964049 0.13652354 0.059807602 -0.22922778 -0.17048977 0.05217272 0.23584828 -0.044657435
0.2789637 0.09629272 0.018325483 0.12234381 -0.021259436 0.05629253 -0.00033033386 -0.17573842
-0.06408387 0.058920663 0.037901033 -0.049177904 -0.23612678 0.09481876 -0.018775133 0.08698726
-0.1260502 0.07956063 0.109319024 -0.07439697 0.034310408 -0.15519224 -0.31386134 0.100142136
-0.18077932 -0.013746818 0.005187345 0.28941238 -0.20647438 -0.13951676 0.044004958 0.084515005
0.044210024 0.15471518 0.105943464 0.03165881 -0.058486804 -0.052536 -0.22552185 0.20490669
-0.3070213 -0.025567386 0.024485733 0.28853998 -0.24135679 0.17764853 0.12097131 -0.056557737
-0.22336128 -0.19610147 0.08965146 0.06824774 0.10510336 -0.15023032 0.037538126 -0.20231912
0.1388688 0.159586 -0.04913479 0.1319952 -0.12703043 -0.035414744 0.11567846 0.24079728
-0.013183655 -0.18866739 0.029466437 0.0851658 -0.18039007 -0.23164082 -0.25171813 -0.22964048
0.04861155 0.11712053 -0.29814172 -0.1933368 -0.024913803 0.21846728 -0.37663817 0.076688774
0.023459546 0.24497847 -0.14512222 -0.40467393 0.11310889 -0.19355468 0.24911548 0.13071398
-0.2841789 -0.06861519 -0.084305815 -0.41432682 0.09384656 -0.055223946 -0.14948893 -0.10685835
-0.1816016 0.055966668 -0.041096963 -0.14185339 -0.12412443 -0.39469522 -0.19172741 0.35018423
0.033794988 0.089144275 0.033345237 -0.092621624 -0.0798345 0.053864412 0.07639721 -0.06654642
0.12552898 0.21398158 0.010962713 -0.25218597 0.06351316 0.27260554 -0.17682514 -0.015972331
-0.012566195 -0.048187714 0.014244012 0.08060835 0.046680387 0.13887796 0.037973404 0.14034882
-0.12747656 -0.087626606 -0.11499187 -0.10933962 -0.11011228 0.11140478 0.2628425 0.111299016
-0.18293397 -0.16171247 0.0020919119 -0.16994964 0.026043165 0.1820869 0.1399429 -0.10755594
-0.3838896 -0.17239544 -0.25808662 0.11204475 0.01652106 0.088089004 -0.071230896 -0.019853598
0.08276062 -0.08201145 -0.18812652 -0.055464648 -0.04980215 0.08568219 0.12788364 -0.28238505
0.1259733 -0.19647492 0.18574947 -0.071393274 0.14293836 0.19527903 -0.3148615 0.24999483
0.24942784 -0.2532875 -0.23895691 -0.06535311 0.044499446 -0.1989682 -0.008896212 -0.16598044
-0.3876792 0.13911425 0.13612887 -0.15646869 -0.26400232 0.1441423 -0.11808718 -0.018265184
0.1816626 0.21073006 0.19830148 -0.031437065 -0.16697945 0.023273284 -0.19546127 -0.09107401
0.27667814 -0.15259726 0.21879798 0.21246406 -0.16210765 -0.06850764 0.14916803 -0.16267824
0.17548816 -0.01995147 0.16589947 0.10349257 -0.26346725 0.0970898 -0.37604144 -0.16800012
-0.08542161 -0.12779903 -0.04957325 -0.16524425 -0.3705744 0.035746284 0.09710826 0.09168626
-0.20001872 -0.17779526 0.08080845 -0.033082552 -0.15364668 0.0922722 0.044315796 -0.19052906
-0.31756988 -0.23043011 -0.022002492 0.035934586 -0.20379913 0.019967055 -0.005843287 -0.38049513
-0.020072144 0.21628924 -0.36858413 0.32869926 -0.08540874 0.12144231 -0.025304846 -0.16795877

fc2.bias f4 [128]
00000000: ca58 c13d 4917 fcbd b2b8 eabc 4419 693d
00000010: eeea 06bd 8852 54be 86b1 84bc b803 343e
00000020: 5803 a8be 9898 acbd 6a8c fcbd 42a8 91bc
00000030: 04c1 383e dfaf 5a3e 5060 93bd 120d 99bd
00000040: 717a 433d 3c8d 56bc cef0 87bd c5e3 1bbd
00000050: 574f 5cbd 89eb 71bc 1b61 e03a 290f 7dbd
00000060: 9f26 55bd cedf 67be 2856 e7bd 4969 35be
00000070: 2f16 613c f361 0bbe 331d c63d c210 a139
00000080: 8b64 233e ffca b7bd fc40 b83d 97cd febd
00000090: 82e0 733d 2d89 653e 54c7 323d 7a26 21be
000000a0: 9cf2 323e 1ade 993b bc96 0bbe 82af 443d
000000b0: 850a 2b3e 5dd5 18be d141 5d3d 575b dabd
000000c0: 3cde cfbd 0c36 e6bd 4843 0fbd 832b 64be
000000d0: 8511 55be f977 e1bd 8581 c3bd 474c 663c
000000e0: 9f3d ee3d b2b8 f2bd f8f1 cb3d 1c73 46be
000000f0: ac11 89be 8fc8 d7be 3a24 b5bd 7269 853c
00000100: 84ba f5bd a659 68be 6161 acbe de61 e4bd
00000110: 3db3 3ebe 3e31 fc3d 0810 afbc 4f3b 61be
00000120: d054 dcbd 928c b43d 04cb cbbd 1996 8bbe
00000130: d38d 12bf 556a 15bd 8017 c2bd 89ed e73d
00000140: 1be1 e7bb 8133 5ebc f554 9abd 7c7f 83be
00000150: 7827 10be 2197 b9bd 17e5 81be d403 6bbe
00000160: 3a1e 403d 521c f1b9 8760 0e3c 5032 cdbc
00000170: 6515 193e 1395 733e 5706 cbbb 1740 7fbe
00000180: 5f11 24be 643e 8dbe 0dc8 d6bd 0c90 9c3d
00000190: b13a 5d3e 4839 13be 4c0c f8bc f558 b9be
000001a0: cacc 1c3c c977 3dbe 75ac f0be c5b2 00bb
000001b0: cfea 813d 6a95 063d a810 09be dfcf 81bd
000001c0: 7213 b03d 01b7 453d ecaf 793d 5c1a 54bb
000001d0: 0781 4ebe c6c7 33bd 8e82 82bc d7cd 8cbe
000001e0: acbd 083e 47f1 9fbd 680e a1bc 8c78 bb3c
000001f0: 8344 16be 07b7 2e3c 920c f8bd 847e 7b3a
0.09440763 -0.12309129 -0.028652523 0.05690886 -0.03293889 -0.20734608 -0.016197931 0.17579544
-0.3281505 -0.084275424 -0.12331469 -0.017780427 0.1804238 0.21356152 -0.071961045 -0.07473196
0.04772419 -0.013095196 -0.06637727 -0.038059015 -0.053786602 -0.014765629 0.0017118783 -0.061782036
-0.052038785 -0.22643968 -0.1129573 -0.17715944 0.013738199 -0.13611583 0.09673538 0.00030720799
0.15956323 -0.08974265 0.0899677 -0.12441557 0.05954028 0.2241561 0.043647125 -0.15737334
0.1747536 0.004695666 -0.1363172 0.04801894 0.16703232 -0.14925142 0.054017846 -0.10661953
-0.1014981 -0.112407774 -0.034976274 -0.22282223 -0.20807464 -0.11009211 -0.09546188 0.014056272
0.11632847 -0.11851634 0.09958261 -0.19379848 -0.26771295 -0.42145202 -0.088448 0.016285632
-0.11998466 -0.22690448 -0.33668044 -0.11151479 -0.18623061 0.1231408 -0.021369949 -0.2199528
-0.10758364 0.08815874 -0.099508315 -0.27262953 -0.57247657 -0.03647836 -0.094771385 0.11324603
-0.007076395 -0.013562084 -0.075357355 -0.256832 -0.14077556 -0.09062029 -0.25370094 -0.22950679
0.046903826 -0.00045988202 0.008690006 -0.025048405 0.14949568 0.23787336 -0.006195824 -0.24926792
-0.16022252 -0.27586663 -0.104873754 0.07644662 0.2160442 -0.1437732 -0.030279301 -0.3620068
0.00957031 -0.18502726 -0.47006574 -0.0019637805 0.06343614 0.032857336 -0.1338526 -0.063384764
0.08597459 0.04827023 0.060958788 -0.0032364344 -0.20166408 -0.04389169 -0.015931394 -0.27500793
0.13353604 -0.07809692 -0.01966019 0.02288463 -0.14674573 0.010663754 -0.121117726 0.00095937424

fc3.weight f4 [4, 128]
00000000: 51a2 353c 44a7 dabe 47a5 10be 5430 f03e
00000010: b18e 07bf 677c 323c 6cbb e73e 2266 d5be
00000020: 645e fb3d 30b0 b13d 4f8e f63e ae33 86bc
00000030: 2542 833e 77a6 09be deea 0b3e 01d2 b33e
00000040: 7bb7 3f3e 9b2d 763e a3f1 9fbe efcf 083f
00000050: be1c aa3e 9ea9 b63e 04cf debe 1bcb 7cbe
00000060: 3c37 b9be 3b5b 22bb b1aa d2be 6261 52bd
00000070: 2dcd ad3e 4ba2 a5be ebf8 29be a5d3 01bf
00000080: 76ec 983e aa47 17bf 913d ce3c 315d e9bd
00000090: d7d6 bb3e 99b3 153e 70e6 efbc db3d ecbe
000000a0: 74b0 0f3e 54c1 e23e 3058 533e 8ca4 fe3d
000000b0: d499 643e 4c92 4ebd 6d71 a93e ed03 313e
000000c0: 3be5 263e 61bd 493d 2c8d a3bb 2c22 103e
000000d0: 2b03 97be e2be 313e 2fd3 9b3d 29fb 043e
000000e0: 7c46 05bf 3706 03bf 7658 913e 7559 98be
000000f0: fa00 6f3e 0a6c 1e3e 4b88 adbe 7fc7 283e
00000100: e512 9a3e e394 f33e 2617 533d a1d6 15be
00000110: e02a 11bf ceb3 363e 9fb3 4fbe 1c5f 2d3e
00000120: 1f70 8d3e eff4 bfbe b7c5 8d3e 88e3 073f
00000130: d531 613d 66a6 423e eca0 b9be 56fa 003e
00000140: fe98 793e 8db4 85bd 87b8 ec3d 9d55 003e
00000150: 0df1 c83e 54af 873c 5ed9 babe fc7f 81be
00000160: c9c1 94bd afc0 ddbd 2b25 9cbe 6150 97be
00000170: 5769 a9bd 6de6 afbe b6d6 de3d bf58 8e3e
00000180: de27 693b 9120 c73e 4f22 ee3b be52 23be
00000190: d0a7 b4be 3ed7 223f 7d5f 963c d534 83be
000001a0: 0558 97bd 11db 13bf 015d 2abf d59d 07be
000001b0: 0b2d 0abf 0f55 3ebe cac0 0ebf 437e eabc
000001c0: bc14 413e f538 77be 0a74 9f3e 9c28 f8be
000001d0: 9707 3abd 33c0 26be 1d9c 043f 3472 13bf
000001e0: 7d65 053c 5981 58be c2a6 67be 4b8f 0d3e
000001f0: f6d8 b8be d52f 42be 5c4c 803e 4405 8c3e
00000200: dc6f a9bd 3d6c ffbd 10fc c0bc e204 02bf
00000210: 1792 eabc 0feb 08bf c8e3 06bf e4d1 3e3e
00000220: 2b76 0bbd cd21 c13e 43af 0c3e cbf8 16bf
00000230: 8dea 6ebe fc4c eebe 4f0b 1d3e fea5 2c3e
00000240: 7e4a acbe d365 cb3e 8a35 3a3e f894 ca3e
00000250: 8722 263e 51ed da3e 0fc0 5cbe 5031 0c3f
00000260: b77f cf3c 499e 5fbe 099c 893e 9079 f13e
00000270: 2c3c eabe f085 d8be 031a 08be 6e02 bebd
00000280: 465a c2be 28c8 983e 48a3 2ebf ced0 bebe
00000290: db71 69bd 05d7 f4bc 9564 233f f11c 763d
000002a0: 4b3b 98be ee96 7cbe fcee 1abd 1768 5abb
000002b0: 5405 da3e 203e d2be f328 c83d 4a2d 18bd
000002c0: cc0e b3bd 868c 903e 4bbe 0e3c bcca a03e
000002d0: c6a8 6b3e 4fc7 663e 111a 0fbf eca7 083c
000002e0: c6bb b8bc c71b a2be b842 cbbe e64f 8fbe
000002f0: 3114 303e 9e3b 443f 0fe8 063e 59d4 50be
00000300: 0884 173c 6418 363e 3b34 a7be 7c1d 19bf
00000310: f65e 31be b843 143d c0fd 04bf 792a 87be
00000320: ad43 57be f40d 8a3c 81f6 66be 3bb0 efbe
00000330: cbaa de3e f1c6 d6be 358a 9b3e 91a0 303f
00000340: dc29 11be f662 b93d b614 52be ff01 efbd
00000350: 3e95 883c 3f0a 3b3f b1d8 68be f226 15be
00000360: b291 323f 52a0 113e d383 10bf 1cf6 9f3d
00000370: 2983 8abe 00ca aabb 68a8 033f 7639 45be
00000380: 0ec2 16bb 2869 85be 4e3d 203f 1fd8 c13c
00000390: 2d68 ca3e 0134 8bbd 90ea 2a3f f7ba e4bd
000003a0: 4d67 ce3c 5b5a cb3e a84f b03e 4ab3 8e3d
000003b0: 2efe 39be 2905 733c 5968 023f 87dd 8abe
000003c0: 1fca e73d 35b3 43be d893 f43d 4f43 55bd
000003d0: 338b b0bd c97e 15be dab4 e23c e05a c83d
000003e0: 8cb4 453e c303 043f 2065 abbe 47dd 1abe
000003f0: 008e 54bd 3000 04be f7bd dd3e b166 87bd
0.0110860625 -0.4270574 -0.14125548 0.4691187 -0.52952105 0.010893918 0.4526018 -0.41679484
0.12273863 0.08676183 0.48155448 -0.016382065 0.25636402 -0.13442408 0.13663813 0.35121158
0.18722336 0.24040835 -0.31239042 0.5344228 0.33225054 0.35676283 -0.43517315 -0.24686854
-0.36174953 -0.0024773616 -0.41145852 -0.051362403 0.339456 -0.32350382 -0.16598861 -0.5071357
0.29867905 -0.59093726 0.025175842 -0.11394728 0.36687347 0.14619292 -0.029284686 -0.46140942
0.14032155 0.44288123 0.2063911 0.124337286 0.22324306 -0.05043249 0.3309435 0.17286654
0.16298382 0.04925287 -0.0049911942 0.14075536 -0.29494604 0.17357972 0.076086394 0.12986435
-0.52060676 -0.5118136 0.28387803 -0.2975575 0.23340216 0.15470901 -0.33893046 0.16482352
0.3009254 0.4757453 0.051535748 -0.14632656 -0.5670605 0.17842028 -0.20283364 0.16930813
0.27624604 -0.37491557 0.27689907 0.5308156 0.054979164 0.19008788 -0.36255586 0.12595496
0.24374768 -0.06528578 0.11558633 0.12532659 0.39246407 0.016563095 -0.36493963 -0.25292957
-0.07263524 -0.10827767 -0.30497107 -0.29553512 -0.08272045 -0.34355488 0.108807966 0.27802083
0.0035576741 0.38892034 0.0072672735 -0.15949532 -0.3528428 0.63609684 0.01835608 -0.25626245
-0.07389835 -0.57756144 -0.6654816 -0.13243802 -0.5397498 -0.18587135 -0.5576292 -0.02862466
0.18855566 -0.24142821 0.31143218 -0.48468482 -0.045417394 -0.16284256 0.5180071 -0.57596135
0.0081418725 -0.21143092 -0.22622207 0.13824193 -0.36103028 -0.18963559 0.25058258 0.27347767
-0.082732886 -0.12471817 -0.023557693 -0.507887 -0.028634114 -0.5348367 -0.52691317 0.18634754
-0.03404824 0.377211 0.13738732 -0.5897338 -0.23331662 -0.4654311 0.15336345 0.16860196
-0.33650583 0.39726123 0.18184486 0.3956678 0.16224109 0.42759183 -0.2155764 0.54762745
0.025329454 -0.21837725 0.26876858 0.47163057 -0.45749032 -0.42289686 -0.13291173 -0.09277807
-0.37959498 0.29840207 -0.682179 -0.3726868 -0.056993347 -0.029887686 0.6382535 0.060086194
-0.29732737 -0.2466695 -0.03782557 -0.0033326203 0.4258219 -0.41063023 0.097734354 -0.037152566
-0.08743057 0.2823221 0.008712362 0.31404674 0.230136 0.22536968 -0.5589915 0.008340817
-0.022550475 -0.31661817 -0.3969934 -0.27990645 0.17195202 0.7665347 0.13174461 -0.20393504
0.009247787 0.17782742 -0.32657036 -0.59810615 -0.17321381 0.036197394 -0.5194969 -0.26399592
-0.2102191 0.016852356 -0.22554971 -0.4681414 0.4348968 -0.41948655 0.3037888 0.68995005
-0.14176124 0.090520784 -0.20515713 -0.116703026 0.016672727 0.7306251 -0.22738911 -0.14565638
0.69753563 0.14221314 -0.5645115 0.078106135 -0.27053192 -0.0052120686 0.5142884 -0.19260201
-0.002300385 -0.2605679 0.62593544 0.023662625 0.39532605 -0.06797028 0.66764164 -0.11168473
0.025195742 0.39717373 0.34435773 0.069677904 -0.18163368 0.014832773 0.5094047 -0.27122137
0.113178484 -0.19111331 0.119422615 -0.052066144 -0.086203 -0.14599146 0.027674127 0.09782958
0.19307154 0.5156824 -0.3347559 -0.15123473 -0.051893234 -0.12890697 0.43308994 -0.06611384

fc3.bias f4 [4]
00000000: 95d7 163e 17d2 983d 3ddf bebd 7636 1fbe
0.14730676 0.074619465 -0.09319923 -0.15548119
